LARA/data/result/d_0.pt (torch, 94581 bytes, 7 tensors)

embedding.weight f4 [36, 5]
000000 63 15 35 3e 3c b3 37 be ad f7 cd 3e 21 63 96 3e
       0.1768394 -0.17939466 0.40228024 0.29372504
000010 e7 9c ed bd e6 12 d9 3d 30 53 2f 3d ba 3a ec 3d
       -0.11602192 0.10599308 0.042803943 0.11534639
000020 ba 97 27 be 7f 3e 55 3d ae 6a 2e 3d 56 59 ab bd
       -0.16366473 0.052061554 0.042582206 -0.08366649
000030 e7 a5 d3 3d c9 91 84 3d da 4b 95 3e f4 de ff 3d
       0.10334378 0.06473119 0.29159433 0.12493697
000040 3c af 88 3e 75 ae 35 be 87 9e 3f 3e 3e 08 61 3e
       0.26696193 -0.17742331 0.18712817 0.219758
000050 a9 14 9a 3e a6 d7 9e bd 19 dd 9b bd 69 43 e8 bd
       0.30093887 -0.077559754 -0.076105304 -0.113409825
000060 1f c7 d6 bd e3 2e 41 3e d1 b3 09 bd a8 2e 1b 3e
       -0.10487198 0.18865542 -0.033618752 0.15154517
000070 61 c9 9b be ae d8 6a be 98 ed 22 3e f8 65 16 3e
       -0.30427077 -0.22934219 0.15910947 0.14687335
000080 91 84 84 3d fb 89 9f bd e7 f8 88 3d 97 c5 ed 3d
       0.064705975 -0.077899896 0.06688099 0.11609953
000090 bc c1 46 3d 89 df 60 be 35 ec 0c be 84 fc 1d bd
       0.048524603 -0.21960272 -0.13761981 -0.038570896
0000a0 74 36 08 bf 68 cb 89 3e 7f 2e 2b be 7d ff 9f 3d
       -0.5320809 0.26913 -0.16716956 0.078124024
0000b0 ca b5 05 be 19 68 42 bb 43 aa 90 3d 07 2b ab bd
       -0.13057628 -0.0029664098 0.07063725 -0.08357816
0000c0 6d 8d 59 bd 9e 0b 29 bd 76 89 80 bd 89 70 0a bd
       -0.05311339 -0.041270845 -0.062762186 -0.03379873
0000d0 97 25 81 be e1 78 5d 3e eb d6 8f 3d b4 2a fa bd
       -0.2522399 0.21628143 0.07023414 -0.12215176
0000e0 d3 d1 e9 3e be 87 a0 be 69 e4 b1 3d 64 b0 46 be
       0.45667896 -0.31353563 0.08686144 -0.19403225
0000f0 ca 35 d7 3e 55 35 cb 3d 08 2b 9e 3d 2e e2 ac 3e
       0.42033225 0.09922282 0.07723051 0.3376631
000100 c9 52 ad be 14 f5 b1 3d 74 e7 68 be 83 ad c5 3e
       -0.33852223 0.08689323 -0.22744542 0.3860894
000110 cd 6f 4f 3e 28 70 a5 3e 7f 68 f7 bd d6 9f 37 be
       0.20257492 0.3231213 -0.12080478 -0.17932066
000120 0a 08 fd bd a7 a6 11 3c 7b fa b4 3c c2 68 a0 3e
       -0.12355049 0.008889831 0.022092095 0.31329924
000130 d7 68 e3 bb 61 f6 95 3e c8 18 49 be 20 90 a3 3d
       -0.006939988 0.29289535 -0.1963836 0.07986474
000140 84 7e 66 be b3 fd 20 3e f5 46 31 be 98 26 bf 3e
       -0.225092 0.15721779 -0.17312224 0.37334132
000150 28 31 8f 3e 68 91 4a 3e 5a 78 c3 3d f3 6e 4c 3e
       0.2796719 0.1978203 0.095444396 0.19964199
000160 2f 92 29 3d 03 c0 5a bc a4 5b 70 be fe 89 53 3e
       0.041399177 -0.013351443 -0.23472458 0.20658109
000170 d2 48 f4 3c 19 18 9c 3e f7 a2 73 be f1 a1 ae 3d
       0.02981988 0.30487135 -0.23792635 0.085269816
000180 c1 aa 9b be c8 09 03 be 8e 08 75 be 31 31 76 3d
       -0.30403712 -0.127967 -0.23929045 0.060105506
000190 b4 a1 b9 3d 42 5a c0 bd 10 17 32 3e 48 2f a3 be
       0.090640455 -0.09392215 0.1739161 -0.3187201
0001a0 f0 80 01 be 27 f4 16 bf dc 5a dd bc f9 29 6d be
       -0.12646842 -0.58966297 -0.027020864 -0.23160543
0001b0 fe 93 e5 3d ad a6 2a be 0c 9c 5f be 18 a8 62 3e
       0.11209868 -0.16665144 -0.21836871 0.22134435
0001c0 f6 e1 90 3b ec 27 d2 bd 76 a9 30 be ee 6a ae 3e
       0.004421468 -0.10261521 -0.17252144 0.34065956
0001d0 12 1b 80 bd 58 c4 60 be a7 c5 f6 bd 50 81 3e 3c
       -0.06255163 -0.21949899 -0.12049418 0.01162751
0001e0 6a 30 85 be 70 a4 47 3e 09 b6 d9 3d e4 05 66 3d
       -0.260135 0.19496322 0.106304236 0.05615796
0001f0 32 4d c5 3d 68 08 e3 be 5f 06 41 bd 0d 00 43 3d
       0.096338645 -0.4434235 -0.047125217 0.04760747
000200 ed ad 2a 3e 93 b1 b1 bd 1e 1e 79 bd 27 de 8d 3d
       0.1666791 -0.08676448 -0.060819738 0.06927138
000210 69 f8 85 be 20 b8 95 3e 73 61 4c 3e e1 a4 6e be
       -0.26166084 0.2924204 0.19959049 -0.23305084
000220 c2 df 7e 3e 25 5e e6 3d 18 a5 31 be 72 f1 4f 3e
       0.24890044 0.112484254 -0.17348135 0.20306948
000230 4e 84 3c 3c b0 12 46 bd 24 27 85 bd 35 55 84 be
       0.011506153 -0.048357666 -0.06501606 -0.25846258
000240 ef 96 6d be d8 98 80 3d 60 38 30 3f d2 b7 30 be
       -0.23202108 0.06279153 0.6883602 -0.17257622
000250 15 cc b6 bd 2b 1c 22 3e cb 77 80 be 7f 9d c9 3e
       -0.08925644 0.15831058 -0.25091395 0.39377972
000260 4a 59 d7 3d 97 b3 b0 bd 9a d4 b1 3e 72 87 8b be
       0.105150774 -0.08628004 0.34732515 -0.27251774
000270 66 eb ae bd b3 62 18 be 41 71 a2 3e 1b 08 81 be
       -0.085409924 -0.14881401 0.3172703 -0.25201496
000280 39 d5 ee 3d be 47 cb be 5a d5 3e 3e b5 aa 07 3c
       0.11661763 -0.39703172 0.18636075 0.008280446
000290 46 2c 7c be 66 a3 da be 72 ea db 3e fa c2 14 be
       -0.24626264 -0.42702788 0.42952305 -0.14527503
0002a0 2c df bf ba 95 7c d4 be 24 a8 b3 bd 93 9e 6b be
       -0.0014638654 -0.415013 -0.08772305 -0.2300971
0002b0 31 ab 67 be 2c f3 b3 3c 19 24 7f be b7 ce 92 bd
       -0.22623898 0.02196654 -0.24916114 -0.07168334
0002c0 01 7a 21 bd 50 cc 39 3e ca 77 1e 3e c0 1c 11 be
       -0.039422993 0.18144345 0.15475383 -0.14171124

l1.weight f4 [100, 108]
000000 d1 3a 29 3e 3a 8e bd 3d 22 3a a2 bd 83 21 46 bd
       0.16526343 0.09255643 -0.07921244 -0.048371803
000010 41 16 d0 bd d5 2e 44 be bd 2e e3 b8 dc fa 82 3d
       -0.101604946 -0.1915849 -0.00010832909 0.06395504
000020 2f d9 05 bd 6c 37 c6 3c 68 7d 7f 3e 0a 9e 27 3d
       -0.032677826 0.02419635 0.24950182 0.040922202
000030 91 a6 81 bd c8 ee 12 3e 58 12 95 3d 54 79 57 bd
       -0.06330598 0.143489 0.072788894 -0.052605942
000040 9b 7c 07 be 05 e5 c7 3c a3 47 f0 bc 4c 2e 93 bd
       -0.13231127 0.024401197 -0.029331034 -0.07186565
000050 f3 07 ab 3d a3 5f cb 3c 1b cb fe bd 4f 7a c1 bc
       0.083511256 0.024825877 -0.12441083 -0.023617892
000060 1b 16 45 bd c5 cc 15 be 1c 4a 42 3d 08 2f 32 be
       -0.048116785 -0.14628895 0.047433957 -0.17400753
000070 e5 1f 44 3c a6 84 42 bd 0b a2 96 bd 28 38 01 3e
       0.011970495 -0.047489785 -0.07355126 0.12619078
000080 d3 70 f6 bc b2 27 66 bd ad af 69 3d 29 97 a6 3c
       -0.030083096 -0.0561902 0.057052303 0.02033575
000090 e0 ae 12 be 9f cb 99 3c f0 ac 5e 3a 08 7f 3e be
       -0.14324522 0.018773852 0.00084943976 -0.18603146
0000a0 df ce 17 be 4a 65 2e 3e eb 83 fc bc 7b c1 cc bc
       -0.14825009 0.17030826 -0.030824622 -0.024994602
0000b0 1f a4 18 3d 62 74 ba 3d 25 0a 9a bc e6 71 c6 3c
       0.037265893 0.091042295 -0.018803665 0.024224233
0000c0 80 79 35 3b b4 86 ae 3e 5d e2 76 3e 2a 88 4c bc
       0.0027690828 0.34087145 0.24109788 -0.012483636
0000d0 93 26 25 be 14 39 8d 3c 24 49 16 bd d4 27 9c 3d
       -0.16127996 0.017239131 -0.036690846 0.07624784
0000e0 d5 0d a3 3d 64 cb 8a be ef 30 86 bc 91 a9 0d 3d
       0.079616226 -0.271083 -0.016380755 0.03458554
0000f0 91 ca 1a 3d 4c 3e 86 3d 83 c9 4c 3d ba f4 9c bc
       0.03779084 0.06554851 0.049996864 -0.019159663
000100 93 ac e5 3d 6c 1b 91 3d 0e fc 28 be 74 da 9a 3d
       0.112145565 0.070853084 -0.16502401 0.07561198
000110 e9 2f f5 bd f7 04 22 be de 35 66 bd 82 d0 b7 bc
       -0.11972029 -0.15822206 -0.056203716 -0.022438291
000120 bc 4c 0e be 32 59 07 3e b9 d9 08 3e 88 0f cb bc
       -0.1389646 0.13217619 0.13364305 -0.02478768
000130 9a 4a 6b bc a7 43 0f be a8 10 a4 bd 47 2e 07 3d
       -0.014361048 -0.13990651 -0.080109894 0.033003118
000140 b2 9c 4e 3d 15 0b 71 bd 55 2d da bd f7 d5 c3 bd
       0.050442405 -0.05884846 -0.10653178 -0.09562295
000150 2c b6 c6 bd a7 d6 71 bc 2c c4 cb bc cc 28 18 be
       -0.09702715 -0.01476065 -0.024873815 -0.14859313
000160 71 12 21 3d ae 0d 06 be 90 df b1 bd ae 29 da 3d
       0.039324228 -0.13091156 -0.08685219 0.10652481
000170 7c cd d9 ba c8 14 11 3d f2 23 99 3e f6 e3 1b bc
       -0.0016617025 0.03542021 0.29910237 -0.009514799
000180 5a ba 4b 3d dd 0c 2c 3c af d7 cd 3d 23 5c 94 3c
       0.049738266 0.010501114 0.10050904 0.01811034
000190 a7 a7 1b bb 05 d2 0c 3e 44 b2 d5 bd bf 6f 32 3d
       -0.0023751052 0.13751991 -0.10434392 0.0435636
0001a0 ad 2a 52 3d d3 f7 37 bd 24 4e d8 3d be ad c0 bd
       0.05131023 -0.044914078 0.10561779 -0.09408139
0001b0 b8 32 0f 3d 34 bd e8 bd 97 57 52 3e ca 2c 08 be
       0.03496048 -0.11364213 0.20541225 -0.13298336
0001c0 a9 c3 db bc 09 12 be 3d 3a b2 90 bd ab 4e 52 3d
       -0.026826696 0.09280784 -0.07065244 0.051344555
0001d0 03 74 1a bd dc c4 92 3d 4b 1e 03 be 7f 6e 09 3d
       -0.037708294 0.07166454 -0.12804525 0.033552643
0001e0 6c b0 35 3d 10 ca dc 3c 44 b5 58 3e d5 04 c2 3d
       0.044357702 0.02695182 0.21162897 0.09473578
0001f0 d8 d9 34 be 68 9f 37 3e cf f5 20 3d 40 e1 0c bb
       -0.17661226 0.17931902 0.03929692 -0.0021496564
000200 59 d4 36 3d d0 80 68 3d 94 df c1 3c 04 a7 ba 3d
       0.044636104 0.05676347 0.02366618 0.09113887
000210 a1 82 78 3d e5 fb 3b 3c 98 a2 11 b7 c5 b9 ba bd
       0.060671452 0.011473631 -8.68053e-06 -0.09117464
000220 f4 5b 29 be 0f d2 5d bd c6 9d cf bd da 04 3d 3d
       -0.16538984 -0.054155406 -0.10137515 0.046147205
000230 8e 9a 6d 3d d4 4f 68 3c c6 00 36 3d 39 d8 cf 3d
       0.058008723 0.014179189 0.04443433 0.10148663
000240 cd 5a 99 bd c2 35 69 3d e7 4f 6c bd 9d 17 c3 39
       -0.07488022 0.056936033 -0.05769339 0.00037210892
000250 01 a2 26 bd ba 5a ad bd a1 15 05 3d 02 02 3f 3d
       -0.040681843 -0.0846457 0.03249133 0.046632774
000260 e8 88 88 bd 04 fa 81 bc 60 c1 8e 3c 8e 2c 8a bd
       -0.06666738 -0.015866287 0.017426193 -0.067467794
000270 01 ad 20 3d 70 fd 35 3d b4 18 24 3d 92 c4 96 3d
       0.03922749 0.04443115 0.04006262 0.073617116
000280 92 3e dd bc 08 08 57 bd 5a 22 15 3e 52 40 4e 3e
       -0.027007375 -0.052497894 0.14563885 0.20141724
000290 41 ef 62 3c 5c 58 44 3d 13 ad 53 bd b2 9b de bd
       0.013850988 0.04793583 -0.05167873 -0.1086954
0002a0 f8 12 25 3e 09 12 ae bc 14 5c 7f 3d 4b b7 ad bb
       0.16120517 -0.021248834 0.062343672 -0.0053013912
0002b0 19 7a 78 3c 15 7a d7 bd d7 b4 60 bd 6f c9 80 bd
       0.015165829 -0.10521332 -0.054859962 -0.062884204
0002c0 26 47 f7 3d 61 a7 a6 3b 82 a9 3f 3c ee 81 10 be
       0.12074117 0.005085871 0.011698129 -0.14112064
0002d0 d6 3e 2c 3c c1 2e 97 3c 1a 36 1a bd 5c a2 fc bc
       0.010513028 0.018454911 -0.03764925 -0.030839138
0002e0 74 e9 25 3e ef 83 c5 3d 49 ce 22 3e b9 b7 ef bd
       0.16202337 0.09644305 0.15899004 -0.11704964
0002f0 2f 9b 04 be b1 91 2b bd 30 65 29 3d cd 90 35 3d
       -0.12949823 -0.04188699 0.041356266 0.044327546
000300 ce a4 66 be 03 34 e4 3c e8 34 b2 3c 06 c2 d2 bb
       -0.22523805 0.027856832 0.021753743 -0.006431821
000310 8d a5 b7 bc 70 93 45 bd 81 94 31 3e f8 d8 00 3e
       -0.022417808 -0.04823631 0.17341806 0.12582767
000320 ce 83 c5 bc 32 86 be 3d c5 d8 a4 bd 47 35 8d bd
       -0.024110701 0.093029395 -0.08049158 -0.068949275
000330 47 92 31 bd f0 ca ef 3c 0b 74 cb 3d 92 fc dc 3c
       -0.04335239 0.029271573 0.09934243 0.026975904
000340 61 30 10 bc 29 15 68 3d 20 5f b4 3c 1a 8f 8e 3b
       -0.008800597 0.056660805 0.022018015 0.004350555
000350 b8 65 ab bd 04 d1 88 bd 0b 6e 74 be 60 e4 c0 3c
       -0.08369011 -0.066804916 -0.23870103 0.023546398
000360 e3 d4 ae 3d d4 7a 8a bc e4 6b 09 3d a8 48 ca 3d
       0.08536699 -0.016904272 0.03355016 0.09877139
000370 de 11 88 be b6 db 3b be 06 64 0f 3c 73 bb 44 bd
       -0.26576132 -0.18345532 0.008751875 -0.048030328
000380 86 88 18 bc d9 2b 15 3d 15 0e 07 bd 55 77 ef bc
       -0.0093098935 0.03641877 -0.032972414 -0.029231707
000390 0d 57 0a be 20 2a 96 3c cc 8a 61 bd f9 b3 b3 bd
       -0.1350977 0.018330634 -0.055064008 -0.087745614
0003a0 2e 39 c9 3d 68 50 3a 3b cb 19 e6 3c d7 a3 25 be
       0.09825359 0.0028429274 0.02808847 -0.16175781
0003b0 6c 49 c8 bd c7 ca 01 bd 7d 33 e9 bd 8d 7c b2 3d
       -0.09779629 -0.031687524 -0.11386774 0.087151624
0003c0 95 8a 59 bd 77 ce 4b bd 47 4d aa bd 1b 61 c5 3d
       -0.053110678 -0.049757447 -0.08315521 0.09637662
0003d0 22 08 16 be 9d 27 3c bd c5 5a c5 bd 4a ec 4c 3e
       -0.1465154 -0.045936216 -0.096364535 0.20012012
0003e0 f6 43 40 3e 10 16 0b 3e 8e 72 97 bd d6 af 56 bd
       0.18775925 0.13582635 -0.073948964 -0.052413784
0003f0 98 f9 92 3d 3f 92 07 3e ed 42 70 3d 87 7f d5 bb
       0.071765125 0.13239382 0.058657575 -0.0065154466

l1.bias f4 [100]
000000 8d 69 b3 bd b6 f7 3c be 7e c2 ff 3d 0e 08 57 be
       -0.087603666 -0.18453869 0.12488268 -0.20999166
000010 a2 18 a7 3e e0 95 22 bd 8a f9 80 bd ce d8 9d bd
       0.3263598 -0.039693713 -0.06297596 -0.07707368
000020 12 95 af 3e d9 b3 6a be c5 02 66 bd 5c 0d 8a bd
       0.3429342 -0.22920169 -0.056154985 -0.06740829
000030 81 49 1d bd de 7a 0f be a8 bb 0b 3b b5 bd 20 3c
       -0.038400177 -0.14011714 0.0021321569 0.009810855
000040 31 ee f2 bd 18 c1 ea bc d9 d5 f4 3d e5 c5 af bc
       -0.11861838 -0.028656527 0.11954851 -0.021456668
000050 97 30 c6 3d 1c b6 10 3e 92 5f 7e 3e f9 4c 21 3e
       0.096772365 0.14131969 0.24841145 0.15752019
000060 6d 10 c6 3a 7d 92 d8 3c 26 16 83 bc f9 42 a5 be
       0.0015111096 0.026437039 -0.016001772 -0.3227766
000070 02 dc 14 3b 0d 75 d4 3d 48 50 8e 3d 22 61 3e be
       0.0022714143 0.10373888 0.06948906 -0.1859174
000080 7f e6 79 be 78 b1 8a 3c 3d 00 92 bd ce 9f 33 bd
       -0.24404334 0.016930327 -0.07128952 -0.043853574
000090 98 4e dd 3d 97 37 1f bc 24 1b b9 bd 9c 90 52 3e
       0.10806006 -0.0097178435 -0.0903838 0.20562977
0000a0 cd 1a 9c 3b bd e6 be bd 4a 0c a6 3d e0 02 3f 3e
       0.004763937 -0.093213536 0.08107813 0.1865344
0000b0 a9 15 c9 3d 0f f6 86 3d 90 28 25 3b 29 38 21 3e
       0.098185845 0.06589901 0.002520118 0.1574408
0000c0 8d 19 b1 3b f5 bf 0b 3c 70 a1 06 3e 9d c9 99 bb
       0.005404657 0.008529653 0.13147521 -0.0046932236
0000d0 dc ea 33 3e c6 7b 92 bd 0a 05 2a 3d f7 d7 26 3d
       0.1757006 -0.07152514 0.041508712 0.040733304
0000e0 9d 5b b5 bd 14 d2 dc bd 27 50 8b be 97 1c 84 bc
       -0.088553645 -0.10782257 -0.2720959 -0.016126914
0000f0 b1 f2 cd 3d 43 4a 8a 3d 19 f9 05 bb 96 83 e7 3d
       0.10056055 0.067524455 -0.0020442663 0.11304395
000100 4a 1d 58 3e 1d 23 d3 bd ae 61 3f be f6 f0 ee bd
       0.21104923 -0.10309432 -0.18689606 -0.116670534
000110 81 77 0d be 20 82 07 be e5 35 75 3d f1 68 40 3d
       -0.13815118 -0.13233232 0.05986585 0.04697508
000120 bb 4f d4 3b 61 16 70 3e f2 d9 92 3d 5f 36 2b 3d
       0.006479231 0.23446037 0.07170476 0.0417999
000130 6c 45 43 3e c3 1c 21 3e 1e 1a 34 3c 9a ca 7e 3e
       0.19069451 0.15733628 0.010992555 0.24881974
000140 ef a1 4c 3c cd 58 f4 3d db 0f d4 3d d4 ed 5d be
       0.01248978 0.11931 0.10354587 -0.21672755
000150 71 f4 9a 3d 66 1b dc 3c 82 48 2d 3e df a3 b4 be
       0.07566155 0.026868533 0.16922191 -0.35281274
000160 f5 5d 5b 3d 06 1d 0d 3c bc 16 24 3e 21 8b d1 3d
       0.0535564 0.008612877 0.16024297 0.10231615
000170 4a 68 de bb cb 48 97 bc 79 4b 20 3e af dc 98 bc
       -0.0067873346 -0.018467328 0.1565379 -0.018659918
000180 4d 4b c3 3c ba c8 0f bc c5 b7 9b bd a4 61 43 3e
       0.023839617 -0.008775884 -0.07603411 0.19080216

l2.weight f4 [100, 100]
000000 b9 4d e7 bc 28 e2 4f 3d 6e 3a d6 3d e4 6f 9e 3d
       -0.028235303 0.05075279 0.10460363 0.07736185
000010 a2 2f c5 bc 8b 3b a7 bd dc a7 9e bd c2 bc c7 3d
       -0.024070565 -0.08165654 -0.077468604 0.097527996
000020 00 41 84 3d 9c 48 36 3c 6c ea 35 bd 06 e2 19 be
       0.0645771 0.01112571 -0.044413015 -0.15027627
000030 56 54 13 be 07 12 0a 3e 38 bd fa 3c 48 d7 22 3c
       -0.1438764 0.1348344 0.030607805 0.009939022
000040 46 7d ba 3c bb 2e 35 bd 49 28 fc 3c 2f 56 2e 3e
       0.022764813 -0.04423402 0.030780928 0.17025064
000050 40 d5 10 bd e8 05 3b bb 04 91 36 3c b9 53 d8 bc
       -0.03535962 -0.0028537456 0.011142973 -0.02640711
000060 7e 67 c2 bd ce 4f ad bd cd 75 9c bd 00 0e 91 3d
       -0.09492396 -0.08462487 -0.07639656 0.070827484
000070 b3 79 86 3e 46 3d a0 3d e3 77 e6 3c b0 aa b9 3d
       0.26264724 0.07824187 0.028133338 0.09065759
000080 ee 89 02 be 29 8e 72 ba 21 ec 65 bc 15 94 4b bd
       -0.12747929 -0.0009252751 -0.014033348 -0.04970177
000090 d7 b6 76 3d a0 49 92 3d 7f 1e 1f bd e1 89 71 bc
       0.060232963 0.07142949 -0.038847443 -0.014742346
0000a0 68 40 06 be 79 af ce bd 32 85 4d be f0 1d a7 3d
       -0.13110507 -0.100920625 -0.20070341 0.08160007
0000b0 0f 79 37 be 0b 4b 4d bc 7e 53 bf 3d f9 8f cf 3c
       -0.17917274 -0.012530099 0.09342097 0.025337206
0000c0 d5 d9 3d 3b 7d 50 f5 bd d0 4f 58 bd b1 cf 4b 3e
       0.002896895 -0.119782425 -0.05281049 0.19903447
0000d0 f7 72 bd 3d e2 b2 a2 bd 47 84 2c bd 1e 5e a5 bd
       0.092504434 -0.079442754 -0.042118337 -0.08074592
0000e0 e2 6f 80 bd 9a 10 c4 3c e5 9e 0a 3c 53 68 69 bb
       -0.0627134 0.023933697 0.008460735 -0.003561516
0000f0 f6 88 93 3d 0c 5e 8c bd f4 12 05 bd 97 1a 7f 3b
       0.072038576 -0.068538755 -0.03248878 0.003892576
000100 25 40 6e 3e 0c e2 70 bc a9 b1 04 3e 31 bb 14 bd
       0.23266657 -0.014702331 0.12958397 -0.036311332
000110 cf f3 61 3e 4e 55 b5 bc e6 92 f9 bd a5 78 22 be
       0.22065662 -0.022135403 -0.12186222 -0.15866335
000120 bd 73 34 be 74 8e 9e bd 26 8c 8e bd c7 5e fb bb
       -0.17622276 -0.077420145 -0.06960325 -0.0076712104
000130 d4 eb ab 3d 42 d8 21 3e 27 cd 8e 3b 56 e8 29 be
       0.0839459 0.15805152 0.004357952 -0.16592535
000140 c2 3d 4a 3d 20 63 7f 3d cb c4 8a 3d a2 b2 bc bd
       0.049375303 0.062350392 0.067758165 -0.09213759
000150 79 35 bf bd 31 87 5e be f5 35 59 be f2 a2 d1 bd
       -0.09336371 -0.21731259 -0.21211989 -0.102361575
000160 20 05 ba 3d db f6 29 be 8d cd 01 bd fa 57 bb bd
       0.09083009 -0.16598074 -0.03169017 -0.091476396
000170 dd df fc 3d f6 e3 26 bd e6 20 d6 bc f3 b8 15 be
       0.12347386 -0.040744744 -0.026138734 -0.14621334
000180 09 3c 5f 3d c3 e4 e7 bd 48 b0 b7 3d 93 17 c9 bc
       0.054500613 -0.1132293 0.0896917 -0.024547374
000190 5d e4 a4 bd a5 61 58 3d 0b be 28 3e 9f 0e d5 bd
       -0.08051369 0.052827496 0.16478746 -0.104031794
0001a0 fc 22 f1 bc e0 84 e3 3d c6 13 cf bc cc e9 95 3e
       -0.029435627 0.11109328 -0.025277983 0.29279935
0001b0 c8 7b 47 bd 97 c0 27 be 8a 5f 08 be 85 8c 6e 3c
       -0.04870203 -0.16382061 -0.13317695 0.01455987
0001c0 c6 f5 76 bd 3d 1d 0d bd ba be 1e 3d e8 9c 96 3c
       -0.06029298 -0.034451712 0.03875611 0.018385366
0001d0 df c0 fc 3c b1 5f 7f 3a 0a 14 8d bb f7 58 51 bd
       0.030853687 0.0009741737 -0.0043053674 -0.051110234
0001e0 69 77 37 bc 25 1f 10 3e c2 74 d8 3d 79 7d 23 3e
       -0.011197903 0.1407438 0.10569145 0.15965833
0001f0 e6 52 b8 3d b2 35 b6 bc 83 a0 2e 3d c6 cf 18 3e
       0.090001866 -0.0222424 0.042633545 0.1492301
000200 30 b5 5b bd fe 7e 8c 3d ca 38 ef 3d 94 b2 b8 bc
       -0.05363959 0.06860159 0.116807535 -0.02254609
000210 b7 81 e1 bd 32 00 7f bd 35 cd 60 3d 60 62 ae bd
       -0.11011069 -0.062256046 0.0548832 -0.08514857
000220 17 4e 42 bd 5f 89 8d bb 49 0d d7 3d fb 2a 0c bd
       -0.047437754 -0.0043193544 0.10500581 -0.034220677
000230 f4 9e 1c bc dd 9c 2d 3e 4c ff 94 bd 32 ca 1d be
       -0.009559382 0.1695437 -0.072752565 -0.15409163
000240 22 6c c2 3b 49 03 f3 3d 8e 2d 7b bd 02 ac 20 3e
       0.0059333006 0.11865861 -0.06132274 0.15690616
000250 bb 06 fc 3c b1 54 4d ba 00 b9 01 3e b9 c0 63 be
       0.030764928 -0.00078327494 0.12668228 -0.22241487
000260 ff 57 6e 3b f4 2e 93 bd b0 0d ca 3d 3c a0 ca 3a
       0.0036368368 -0.0718669 0.09865892 0.001545913
000270 de b3 0d 3e cb 4c a9 be 6f d9 85 3d e3 a0 10 3d
       0.13838145 -0.330664 0.06535613 0.035309684
000280 9a b9 92 3d 9b 14 8c 3b d1 9f 26 3e f2 d2 1f bc
       0.07164307 0.0042749173 0.16271903 -0.009754883
000290 b0 47 63 3e 13 2f 6f 3d 3c 8a 2c bd e9 d5 d4 3d
       0.22195315 0.058394503 -0.042124018 0.103923626
0002a0 d0 e3 5f be ac 48 4d 3c dc 06 ca 3d bc 05 df bd
       -0.21864247 0.012529533 0.098645896 -0.108897656
0002b0 4d 4b 87 bd 05 cc 17 3e 95 c8 81 3d 1e eb 2c 3c
       -0.06606159 0.14823921 0.06337086 0.010554103
0002c0 53 c6 5f 3d 42 ca fe 3d 14 92 06 bd b8 3d dc 3d
       0.054632496 0.12440921 -0.032854155 0.107539594
0002d0 cf a3 ce 3c 47 1c 91 3d 24 47 1b 3c 61 67 a0 3d
       0.025224594 0.070854716 0.00947741 0.07832218
0002e0 28 4e 1c bd 4a f9 60 bd 49 c0 d4 3c 6a 81 53 be
       -0.038160473 -0.05492524 0.025970595 -0.20654836
0002f0 a4 44 ba bd 2a 38 dc bc 88 a3 6e 3e 51 4f e1 3d
       -0.090951234 -0.02688225 0.2330457 0.110014565
000300 cf fa fa 3d e8 ea bc bc 41 f5 59 3e d1 59 53 3d
       0.12254869 -0.02306123 0.21284963 0.051599327
000310 70 7a 05 be 9c 7d 94 bd e1 af e3 bb e7 f6 c3 3c
       -0.13034987 -0.072505206 -0.0069484566 0.023921443
000320 dd e4 2d be f4 a1 29 be d0 69 0f 3c 0e c1 1d bd
       -0.16981836 -0.16565686 0.008753255 -0.03851419
000330 6b a5 cd 3c 13 69 af bd 03 c6 f6 3b 8e 71 ee bd
       0.025103291 -0.08564963 0.007530929 -0.116427526
000340 9c 64 52 3e 16 e4 33 3c 42 f2 78 3d 5f 42 b4 3c
       0.20546192 0.010979673 0.06077791 0.022004304
000350 ed de 1c 3e 4c f5 03 be 03 c1 bb bc 12 ee 6c bd
       0.15319414 -0.12886542 -0.022919184 -0.05784423
000360 9d 52 cc bd 46 00 85 3d 10 a3 8d be 86 42 6b bb
       -0.09976695 0.06494193 -0.2766347 -0.0035897805
000370 47 d9 76 bc d0 0e 60 bc 53 9c ee bc a7 68 f8 3d
       -0.015066451 -0.013675407 -0.029127276 0.12129336
000380 c0 88 9f 3d a8 ac 00 3d ff 29 85 bc 98 98 32 be
       0.07789755 0.031414658 -0.016255377 -0.17441022
000390 3a 6d a3 bd 63 65 11 bd 96 20 eb bc 47 2c a8 bd
       -0.07979818 -0.03549708 -0.028702062 -0.0821157
0003a0 3d 4a ca 3d 64 7b 6b 3d 44 cc b2 3d 4b 1f 19 bd
       0.09877441 0.05749072 0.08730367 -0.03738336
0003b0 75 0d df bd 48 77 be bd 81 f6 9a bd 71 90 b8 bd
       -0.108912386 -0.09300095 -0.07566548 -0.09011925
0003c0 5e 7f 7d 3d 27 35 c6 bb d4 6f a6 bd 50 ba 3e bc
       0.061889045 -0.0060488167 -0.08126798 -0.0116411
0003d0 fe 3e 72 bc b6 85 0f be cb 71 b4 3b 48 20 b6 3d
       -0.014785526 -0.1401585 0.0055067292 0.08892876
0003e0 80 6a 47 3d 0b 3a 7d 3d 3b 51 5a 3d c3 c5 21 be
       0.04868555 0.061822932 0.053300124 -0.15798096
0003f0 1a 64 30 be 21 41 bb 3d de 58 d2 3d 20 b8 27 bd
       -0.17225686 0.09143282 0.10270856 -0.04094708

l2.bias f4 [100]
000000 9c 31 c6 3d ee 40 24 bd 2a bd 9b be fc d1 5b 3d
       0.09677431 -0.040100984 -0.30417758 0.053667054
000010 6e 9d b3 3c bf b7 6c 3d 61 3c 36 be d1 1c 3f be
       0.021925654 0.05779242 -0.1779647 -0.18663336
000020 af 43 3e bd 5b 70 ae bb ef da b5 bc 40 f0 4d 3c
       -0.046451267 -0.0053234524 -0.022199122 0.012569487
000030 f5 dc 2c be bc 55 48 3d 09 23 39 3e 38 e5 d6 3d
       -0.16881163 0.048909888 0.18079771 0.10492939
000040 ed cd 3c bd 5a ba 0b be 66 89 f2 3d 85 de ac bc
       -0.046094824 -0.13645306 0.11842613 -0.0211022
000050 4d 66 57 be 64 10 3c 3d de b3 9a bd 81 29 29 3e
       -0.21035118 0.04591407 -0.07553838 0.16519739
000060 ba 46 9c 3d b6 5d 8b bd 20 65 75 bd 05 fb a4 3e
       0.076306775 -0.06804983 -0.059910893 0.32222763
000070 7f c8 49 3d 9a ba aa bd 75 4b e2 bd 8c 4f ff bc
       0.049263474 -0.08336373 -0.110495485 -0.03116586
000080 2b 5f d5 3d d3 4c 89 3e 8e a3 10 3e 8f 00 42 3e
       0.104185425 0.26816425 0.14124891 0.18945526
000090 ec a6 ad bd 28 68 3a 3e 49 55 d7 3c f8 de 5e be
       -0.084791034 0.18203795 0.026285784 -0.21764743
0000a0 03 53 05 3e bb c7 01 bd 1e 4a 96 3d c4 45 0d be
       0.13019948 -0.03168462 0.073383555 -0.13796145
0000b0 98 41 6a be db 27 34 bd 14 e3 13 3e d1 23 27 3c
       -0.22876585 -0.04398332 0.14442092 0.01020141
0000c0 91 f1 5c bd f0 c9 a4 3d db 02 87 3d 43 33 4a 3e
       -0.053941313 0.08046329 0.065923415 0.19746117
0000d0 ac 36 0d 3e 6a c9 45 be 6f 19 0b be 92 27 95 be
       0.13790387 -0.19315115 -0.13583921 -0.29131752
0000e0 14 dd 37 be fd b0 e4 3d d1 33 01 3e 05 fc 59 be
       -0.17955428 0.1116657 0.12617423 -0.21287544
0000f0 09 ae 94 3d a1 98 8c 3e 49 48 c8 3d 03 b4 32 be
       0.07259757 0.27460197 0.09779412 -0.17451482
000100 fe 09 05 3d c3 3e 82 be f4 1b 97 3c ce 29 a8 3d
       0.032480232 -0.25438508 0.018445946 0.082110986
000110 06 fb 2a 3e b2 0e e0 bd 4e 75 19 be 43 49 55 3e
       0.1669732 -0.10940303 -0.14986154 0.20828728
000120 6e 62 04 3e 49 3a 27 be 3d c2 9b 3d ea 8b 98 bd
       0.12928173 -0.16330828 0.076054074 -0.074485615
000130 5a f4 0e be a0 c0 1f 3e a6 63 3b 3e 5e 2d 88 be
       -0.139604 0.15600824 0.18299732 -0.26597112
000140 63 1d e1 3c 5b 3a c9 3d 2c 55 51 bd 72 ce 0c be
       0.027479833 0.098255835 -0.051106617 -0.13750628
000150 5b 1d 43 3d 69 f4 d2 3e df 96 7e 3e 02 b2 bf 3d
       0.047635417 0.41202095 0.2486224 0.09360124
000160 da ca 85 bd a8 4b 44 bd cf 84 40 3d a5 bd b7 bd
       -0.065328315 -0.047923714 0.047001656 -0.08971719
000170 62 2c 0c 3e 27 f0 7d 3d 1d a1 03 3e da d3 93 bc
       0.13688806 0.061996605 0.12854429 -0.018045355
000180 a4 b6 1a 3d a0 c3 13 3e 0d 1a ca 3d 6c 4d 01 3d
       0.037771836 0.14430094 0.0986825 0.031567976

l3.weight f4 [18, 100]
000000 e8 38 50 bc fa 46 a1 bd 29 11 ac 3d 92 f0 6a 3d
       -0.01270888 -0.07874866 0.084017105 0.057358332
000010 e0 13 1e 3e 44 29 b3 3d a8 ca 82 3d 7a 27 e2 bd
       0.15437269 0.08748105 0.0638631 -0.11042686
000020 e4 24 a0 bc 9e d5 58 bc 88 be 10 3e 5c d0 88 bd
       -0.01954884 -0.013234524 0.14135182 -0.066803664
000030 92 06 12 3e d4 56 37 3c f7 2b de 3d c4 1f d3 bd
       0.14260319 0.011190135 0.108482294 -0.10308793
000040 95 ef 15 3d 93 3a 11 be 6b 1b 0c bd f0 3f 93 3d
       0.036605436 -0.141825 -0.034205835 0.071899295
000050 ce 21 ab 3d 95 69 04 be 18 25 37 3e 1c 2a de 3d
       0.08356057 -0.12930901 0.17885244 0.108478755
000060 b6 cf e8 3d e2 f2 d5 bc 3c cd 13 bd bc 39 29 bd
       0.11367743 -0.026116792 -0.0360844 -0.041314825
000070 04 d2 a0 3b 21 51 8a 3a f9 f9 79 3e 17 10 47 be
       0.0049078483 0.0010552743 0.24411763 -0.19439732
000080 15 07 34 bd 28 cc 28 bc b9 67 ab bc d5 b9 53 be
       -0.043952066 -0.010302581 -0.020923482 -0.20676358
000090 fc 70 a4 3e 28 38 00 3e fc e7 c3 3d 15 d0 41 bd
       0.3211745 0.12521422 0.09565732 -0.047317583
0000a0 e8 55 43 3d f1 f8 64 bc 2d 71 a3 bd 65 b6 cf 3d
       0.04768935 -0.013975368 -0.07980571 0.10142211
0000b0 c4 86 c0 3b e9 01 e7 3b 4f 88 7c bd 3a c2 9b bc
       0.0058754403 0.0070497883 -0.06165343 -0.019013513
0000c0 6c 86 09 be db 71 56 3d 29 c1 d5 3d e6 e1 b2 3d
       -0.13430184 0.052354675 0.10437233 0.08734493
0000d0 7e 71 29 bc 10 f9 7c 3e 65 64 44 3d eb 8a 9d bd
       -0.010342 0.24704385 0.047947306 -0.07692512
0000e0 a1 14 82 3d 8a 30 02 3e 06 af 93 3d 5f 31 f4 bc
       0.06351591 0.12713829 0.072111174 -0.029808698
0000f0 24 60 81 3d 8e f4 92 3d 10 e7 28 3d 30 9d 24 be
       0.063171655 0.07175551 0.041235983 -0.16075587
000100 c4 1a c6 bd 9a 23 c6 3d c2 24 88 3e ed 8b 13 be
       -0.09673074 0.09674759 0.26590544 -0.14408846
000110 71 78 93 be ea 92 9d 3d 0f ad 65 bd b6 37 b1 3d
       -0.28802827 0.07694037 -0.056073245 0.08653204
000120 43 83 94 bd 39 c8 16 be a0 c7 52 3e 87 e1 ea 3d
       -0.07251599 -0.14724816 0.20583963 0.11468797
000130 7d 9a b8 3d 6b 3f d3 3d b3 f5 2f 3d 08 78 1b b9
       0.09013841 0.103148304 0.042958926 -0.00014826667
000140 01 9c cc 3d de 71 ae 3e 46 db ca 3d 40 0d c7 3d
       0.09990693 0.3407125 0.09905104 0.09719324
000150 9f 88 b9 3d 2a 15 63 3e ef 9e 64 be b6 c8 16 3b
       0.090592615 0.22176042 -0.22326253 0.0023007817
000160 94 c3 74 3d d8 bd 38 bd 2d 0f c1 bd 58 73 2e bd
       0.05975683 -0.045102924 -0.09426723 -0.04259047
000170 3b 4a a4 bc 7d 8c db 3d 23 ce 8b bd 8b aa 0c be
       -0.020054927 0.107201554 -0.06826427 -0.13736932
000180 89 73 3d be ea 30 d9 3d 29 aa 11 3e ea 7e f6 3c
       -0.18501104 0.10605033 0.14225067 0.030089814
000190 47 09 9f be 37 25 c7 3c 17 6c 12 3e a5 5c c3 bd
       -0.31061766 0.024309738 0.14299046 -0.09539155
0001a0 4c b5 72 bc 34 95 a7 bd 3a 51 9e bd 63 a2 9b 3e
       -0.014813732 -0.08182755 -0.077303365 0.3039733
0001b0 fb 84 5b bd 47 32 6e 3e 25 96 29 3e d9 01 d2 3d
       -0.053593617 0.23261367 0.16561182 0.10254259
0001c0 d4 cb 88 3e a3 1d cb bd 48 f8 0e bd 32 63 1d 3d
       0.2671801 -0.09917762 -0.03490475 0.03842468
0001d0 3b ea c3 3a 53 cf 56 3e 4d 00 43 be 6d cb 81 bd
       0.0014947125 0.20977525 -0.19043083 -0.063376285
0001e0 ed b1 34 3d e6 c6 20 be c2 0d 1a be a3 85 5b bd
       0.044114996 -0.15700874 -0.1504431 -0.053594243
0001f0 25 97 25 bd e5 be ff bc e8 fc f9 bc e3 0d 12 3d
       -0.040427346 -0.031218955 -0.030516103 0.035657775
000200 69 16 23 3d fd 4f 59 bd b8 a3 4e bd 1e 79 dc 3b
       0.039816294 -0.0530548 -0.050449103 0.0067283055
000210 5e 8d e7 bd f0 d8 78 be 30 b5 50 3d a3 e1 78 3c
       -0.113062605 -0.24301505 0.050954044 0.015190515
000220 36 99 c0 bd 83 ff b3 bc 8c 76 b7 3b 75 6a a6 bd
       -0.09404223 -0.021972423 0.0055988487 -0.08125774
000230 64 a4 87 bd d1 e0 4f bc 03 df f0 3d f5 df 93 bd
       -0.06623152 -0.012687878 0.11761286 -0.07220451
000240 96 ad d2 3d 14 7f 66 3e f9 34 07 bd fb bf 05 3d
       0.10287015 0.22509414 -0.033009503 0.03265379
000250 8a 49 87 3d 8f 3f 25 3e 85 a2 ba 3d 9f 66 fc bd
       0.06605823 0.16137527 0.091130294 -0.12324261
000260 08 7a b0 3d fa 2a 3c 3d 48 69 ab 3d 1b ee 19 3a
       0.086170256 0.045939423 0.0836969 0.00058719673
000270 c5 8d de bd 3f 25 b2 3b 70 59 68 3e 1b c8 85 3d
       -0.10866884 0.005436569 0.22690368 0.06532308
000280 61 0d ef bd 84 04 3d be fd bc e2 bd ac df ef 3d
       -0.11672474 -0.18458754 -0.11071203 0.11712584
000290 4d 2b 36 bd fe 82 5b 3e de 60 f6 bd b5 a4 e4 3c
       -0.04447489 0.21436688 -0.12030195 0.02791057
0002a0 2d b0 85 bd 1a 0e d3 3d 6b 3f 4f 3d 42 75 55 bc
       -0.065277435 0.10305424 0.05059759 -0.013028445
0002b0 b6 55 3c be e1 86 b3 3c 9e 8a 01 be 8f 41 5c bd
       -0.18392071 0.021914901 -0.12650535 -0.05377346
0002c0 2a 46 23 bc 4b ab de bc a1 a0 1e 3d 52 06 25 3e
       -0.009965459 -0.027181288 0.038727406 0.16115692
0002d0 09 fb 26 3e 80 d0 99 bd 9d 3d 5e 3d a8 5f 81 bc
       0.163067 -0.07510471 0.054257978 -0.015792683
0002e0 8f f8 91 3e e5 81 69 bd 5e 5c 49 bd fd 27 b7 3d
       0.28509948 -0.057008643 -0.049160354 0.08943174
0002f0 c8 28 a9 bd 07 1f 90 bc 14 0d 26 bd f2 72 97 bd
       -0.082597315 -0.01759292 -0.040539816 -0.07394971
000300 7a 74 41 3d 3b 0c c2 3b 23 e0 1c be f0 ea 30 3e
       0.04723022 0.005921868 -0.15319876 0.17277122
000310 3b 99 5d 3e d9 95 2b be 36 1b 00 3e 95 45 e1 bd
       0.21640484 -0.16756381 0.1251038 -0.109996
000320 fe d2 8f bd 96 35 b3 3d 44 89 a6 3e 14 30 03 3e
       -0.070226654 0.08750455 0.325266 0.12811309
000330 a7 40 af 3d 1b b5 2c 3e 85 0b 3e 3d cf ec 58 bd
       0.08557253 0.16865961 0.046397705 -0.052960213
000340 7e a2 90 be 2d ca c1 3c ba da bd 3e 9f 1d 0a 3d
       -0.28248972 0.023655975 0.37080938 0.033719655
000350 6c ac 1e bd ae 50 0f 3a c1 ab 23 3e 32 0f c5 bd
       -0.038738653 0.00054670393 0.15983488 -0.09622039
000360 47 31 fd bd ff f4 6b bd 8e b7 e4 bc 0e 54 72 3d
       -0.123629145 -0.057606693 -0.027919557 0.059162192
000370 8a ba a7 3d 5b e6 4a 3d 2d 87 22 3e 45 01 cd bd
       0.081898764 0.04953609 0.15871878 -0.10010008
000380 5e 2e 3d 3d ee 9d fc 3d f2 0a e0 3c 8f 87 08 3e
       0.046186797 0.1233481 0.02734897 0.13332961
000390 87 2b 00 3e b1 07 d6 3d e2 4f 76 3d ab 91 10 be
       0.12516604 0.10450686 0.060134776 -0.14118068
0003a0 90 d7 5b bc fd 8e 22 be 94 a0 9b 3d 0a db bb 3d
       -0.013418093 -0.15874858 0.07598987 0.09172638
0003b0 6b 15 67 3d 7c a2 87 3c 7a c3 19 3e 00 d2 0a 3e
       0.05641691 0.01655697 0.15015975 0.13556671
0003c0 a9 b2 9d 3d 17 f2 85 3b 00 38 33 3c dc fa c8 bd
       0.07700092 0.0040876972 0.010938644 -0.09813473
0003d0 78 6e fb 3d 6e 78 12 3d 63 39 2f be 9b fe 9e 3d
       0.122769296 0.035759382 -0.17111735 0.07763406
0003e0 91 25 a9 3d 28 c9 14 3d 4d 10 33 be 24 10 74 3d
       0.08259118 0.03632465 -0.17486687 0.059585705
0003f0 c9 7c 26 3e 27 8b d9 bd 5e ec 39 3e 29 c1 7d be
       0.1625854 -0.10622244 0.18156573 -0.24780716

l3.bias f4 [18]
000000 29 a6 0c be 27 d8 81 bd 0a 38 eb 3d 9f 3e 35 3d
       -0.1373526 -0.06340056 0.11485298 0.044249173
000010 27 c2 40 be 88 59 5d be 27 91 b0 3e e9 f5 53 be
       -0.18824063 -0.21616185 0.34485742 -0.20699276
000020 31 64 a7 3e 4d ad d1 be e2 b2 15 3e ad a8 0c be
       0.32693627 -0.4095253 0.1461902 -0.1373622
000030 6c 7a 5a be 81 2f 34 be fb 50 d5 3d e1 38 3f bd
       -0.21335763 -0.17596246 0.104158364 -0.046685103
000040 6e e6 04 3e 9b b2 a6 bd
       0.12978527 -0.08139535
