LARA/data/result/d_10.pt (torch, 94581 bytes, 7 tensors)

embedding.weight f4 [36, 5]
00000000: ce2d 903e f3ac 7dbe e322 f53e cd4d ac3e
00000010: 3151 62be 4023 3e3e 26ed 793c 8213 5e3e
00000020: f7c6 83bd feb5 cbbd 3d9e 933d 7d04 d5bd
00000030: 5374 2e3e 5ee0 1d3e 7864 b13e 38b3 473e
00000040: ab25 2e3e e76d 42bd d88e 863e 0fd9 933e
00000050: e5dd b03e 08ab 44be 0d1a 23be 8b73 4bbe
00000060: bb1b e8bd aa3d 843e db67 7abe 9a46 a33d
00000070: 2b61 f3be c27b 12be cda9 723e baaa 313e
00000080: e041 1d3e 7c10 d6bd 9140 0f3d 5d9d 9f3d
00000090: c062 c53d bf37 a2be 4659 91be b3fa 80bd
000000a0: 0440 11bf ad54 aa3e f79b 76be fda2 433e
000000b0: 7978 7fbe 0ff7 0dbe 2e46 403e 4e63 2ebe
000000c0: 5b92 663d 8a5c 3dbe 01a8 80bd 5e8f 593b
000000d0: c55b a4be 965f 893e a9b9 263e 7995 cebd
000000e0: b1ab df3e 7793 bcbe 8796 eb3d 698f bfbd
000000f0: 1e78 f33e f511 133e 6aa6 023e e0ea e13e
00000100: 944f c1be 80bb 39bd 2d25 07be efbf 053f
00000110: adc2 863e d595 253e 396d afbd 7da9 28be
00000120: eb64 a6bd f770 57bd 3468 adbc 114b bc3e
00000130: 36ba 1d3c 9d3f aa3e 3d93 86be fb62 fa3c
00000140: 647e 89be 8cf3 453e e759 4ebe 92ea d33e
00000150: 129e bc3e 7aa6 923d 574a 843e e6ae 1ebc
00000160: de43 6c3e 233f 6d3e 5fa4 7abe b7db 883e
00000170: fa98 af3d afb6 c23e b396 95be ad30 973e
00000180: fff5 afbe 3698 0cbe 3c0f 9bbc e30f 1f3e
00000190: 6c7d 0d3e 7578 02be 84f2 643e 5a51 e1be
000001a0: 42f3 3ebe 78f9 21bf 00e8 cdbd 41d0 f6bd
000001b0: 2cfd a23c a589 4dbe 0d8d 80be 1243 8c3e
000001c0: 985e bd3d 2628 f5bd 92a1 7dbe 326a 083e
000001d0: cb7e 9d3d 213c fdbd 8768 81be 9afe 3ebe
000001e0: ee67 b2be d0de 933e a882 303d 2172 2e3e
000001f0: e615 0a3e e0ef e2be 4806 c73d 9041 7abb
00000200: bf70 863e d765 dcbc dfc6 3fbe 854a 203e
00000210: 83f2 a7be 39fe 933e 8c2f 9c3e 6d28 b4be
00000220: aa43 a73e 2904 52bd 9506 89bd 6445 a03e
00000230: 79a6 aabd bbc8 ac3c 1253 18be de4a a4be
00000240: 710f 88be dfd4 983b 9c8b 263f 8af6 78be
00000250: c4e1 22be cd6d a53d 63fd acbe c2d1 f43e
00000260: 5948 243e 3a15 4cbb 31a6 c43e 1e37 9fbe
00000270: 8f90 623d 323d 9abd e1ee db3e b645 acbd
00000280: d159 173e 7268 b7be adff 783e 4f3e eb3d
00000290: 741d 88be 787c e4be 04da c83e 83dc c4bd
000002a0: 20db 2a3e 0edf ecbe 1455 45be d15c 9dbe
000002b0: 2ff8 7bbe 3e08 c53d 2159 6cbe bfd5 81be
000002c0: 49cb 38be 9ce0 193d 812a 9d3e 3f1b 8ebd
0.28159946 -0.24773006 0.4787818 0.33653107 -0.22101285 0.18568134 0.0152542945 0.21687129
-0.06434434 -0.09946822 0.07207916 -0.10401247 0.17036562 0.1541762 0.34646964 0.1950196
0.17006557 -0.047468092 0.26280856 0.2887654 0.34544292 -0.19205868 -0.15927906 -0.19868295
-0.11333414 0.25828296 -0.2445368 0.079724506 -0.4753507 -0.14305022 0.23697586 0.17350283
0.1535716 -0.10452363 0.034973685 0.077936865 0.09637976 -0.31683156 -0.28388423 -0.06297817
-0.56738305 0.33267727 -0.24082933 0.19105144 -0.249483 -0.13863777 0.18776771 -0.17030069
0.05629192 -0.18492332 -0.06282044 0.0033197026 -0.32101265 0.2683074 0.16281761 -0.100871034
0.43685678 -0.36831257 0.1150332 -0.09353525 0.4755258 0.14362319 0.12758794 0.44124508
-0.37756026 -0.04534483 -0.13197775 0.5224599 0.263204 0.16170438 -0.085657544 -0.16470905
-0.08124717 -0.052597966 -0.021167852 0.3677602 0.009626916 0.33251658 -0.2628421 0.030564776
-0.2685424 0.19331187 -0.20151483 0.413899 0.36839348 0.07160659 0.25837967 -0.009685254
0.23072764 0.23168616 -0.24476765 0.2673013 0.085741 0.38030002 -0.29216537 0.29529324
-0.34367368 -0.13729939 -0.018928163 0.15533404 0.13817376 -0.12741263 0.22358137 -0.4400738
-0.18647483 -0.63271284 -0.10054016 -0.1205144 0.019896112 -0.20072038 -0.25107613 0.2739492
0.09246558 -0.11970548 -0.24768665 0.1332176 0.076901995 -0.12364984 -0.2527506 -0.1865181
-0.34844917 0.2888093 0.043093354 0.17035724 0.13484916 -0.44323635 0.09717995 -0.003818605
0.26257893 -0.02690403 -0.18728207 0.15653427 -0.3280221 0.28904894 0.30505025 -0.35187092
0.3266881 -0.0512735 -0.066907085 0.3130294 -0.083325334 0.02109181 -0.14875439 -0.3208837
-0.2657428 0.004664048 0.65056777 -0.24312797 -0.15906435 0.080775835 -0.3378707 0.47816283
0.16043223 -0.0031140582 0.38408044 -0.3109674 0.055313643 -0.07531203 0.42955688 -0.08411734
0.14780356 -0.35821873 0.24316283 0.11486494 -0.2658497 -0.44626212 0.39228833 -0.09612372
0.16685152 -0.46263927 -0.19270736 -0.30734876 -0.24606393 0.09620713 -0.23080875 -0.25358388
-0.18046297 0.03756772 0.3069649 -0.069387905

l1.weight f4 [100, 108]
00000000: 1134 043e 882d d33d 8a4c e0bd 0ca7 5fbd
00000010: 6a17 a3bd 8606 80be 7f2d 033d 47b7 d13c
00000020: f7cc afbd 301b cebc 3a38 503e 8cd3 ba3d
00000030: 90ba 12bc 7f66 433e c62d fa3d 8c7d c5bd
00000040: cfdc 3abe 564e 103d 2f3e 5b3d 8ea6 eabd
00000050: 3f53 053e e860 c7bc be84 95bd 416b 98bd
00000060: d24f b23b 46fc a6bd ab32 9e3d ed68 ffbd
00000070: ed0b 28bd dddd d5bd 8afd 02be 83cd 813d
00000080: 4875 96bd 4008 e3bd e5e2 ed3d eea1 503d
00000090: 16c4 98bd ea9b 523d d614 413a 7e08 3dbe
000000a0: 7902 b5bd ad55 f23d dea2 063d 2dd4 a9bd
000000b0: 9671 89bc 34c8 233e 8f2a c8bd 3213 90bd
000000c0: cea9 80bd 4403 d13e 521b 893e 7e2f 293d
000000d0: 3e73 46be 4a92 5c3d 300d 613c c583 0f3e
000000e0: 168b a43c d1a3 c0be 2aff eb3c fe02 c13d
000000f0: aad5 b33d 1499 453c 479a 843a a774 90bd
00000100: 5b2c 763d d348 083e 8dac 5dbe 3ff1 ff3d
00000110: 7c80 29be 2938 52be 7523 e8bc 449e b8bd
00000120: 4ace aabd 8ead 343e d0d4 283e 73f5 d53c
00000130: 6ddf 84bd ab38 3ebe e792 debd 8392 92bc
00000140: b4cc 6cbd b309 7c3c be9e 34be 2a0e 29be
00000150: 743e 6fbd 5fb0 0d3d b580 ff3c 478e adbd
00000160: ef5b 51bb 8e21 9cbd f87a 20be 9447 ba3d
00000170: 43ef 42bd ef95 f23c 5640 7e3e 4201 ce3b
00000180: dc36 083d eab5 863d 0950 c23d c113 993d
00000190: 7101 8eba fef1 a03d cd5a a8bd 912b fe3c
000001a0: edba d53c 9bae 8cbd 8532 dd3d 89f4 f2bd
000001b0: d528 d43c 5d1e e3bd 5abc 473e a35c 07be
000001c0: 65ae 94bc e6b4 a33d e0e3 51bd 3d47 0a3d
000001d0: 517a 5fbd 4fa1 5a3d db2d 12be 6391 553d
000001e0: 68fd 8a3d 25cb 203d 1387 633e 9c98 ab3d
000001f0: cb65 44be 30a6 4f3e 280c 923d f0c3 45ba
00000200: bea1 683d 9654 303d 882e 323d 93ff be3d
00000210: aea8 9e3d 25d7 fc3c 35e7 ae3c f5d4 96bd
00000220: a500 3bbe c4de 9bbd c5e7 f6bd 594d 933c
00000230: d336 573d 3552 bbbb 3046 893d e32b 003e
00000240: 5351 6fbd 511a b83d 47ef 83bd dfea 343c
00000250: d87b a2bc 303e cbbd 35e9 5e3d dd12 cd3c
00000260: e8ca b0bd b010 563c a867 9fbc def5 f9bd
00000270: 451d 3f3c c2d8 923d 8956 473d a0f3 c43d
00000280: 5074 2cbd ac9f 22bd 5640 283e e215 6c3e
00000290: 0084 20bc 687f 10bd df15 28bd 2a1a acbd
000002a0: 69ee 343e 039b 27bd c846 313d 7b8e 9abc
000002b0: 8871 35bc f1f2 a9bd fe5d 8bbd 4f2d 2cbd
000002c0: eb20 cd3d fd9f 31bc 4f42 7f3d 07ef 00be
000002d0: 313c d23c c8bf 1c3d e5b6 60bc 5bd1 79bc
000002e0: bca5 0a3e add1 6c3d 8000 383e f592 17be
000002f0: 9791 2ebe 1a57 9cbc 8474 9a3c ce6e fd3c
00000300: f620 57be 7aaa 2a3d bdde 2c3d accb b33c
00000310: c50f b7bc 2e08 fbbc f627 363e 0aca 593d
00000320: 1375 693d dd38 cb3c 11b6 c5bc ed41 a7bd
00000330: 9a57 74bd 88a6 553d 4ab4 253e 6688 b13d
00000340: c428 a53d 028c 0fbd 1934 503d 1212 673d
00000350: 69d7 96bd 819b 833d c34f 75be 3eb0 d53c
00000360: 7317 0d3e 388b 79bd aaf5 a73d 9dea 0e3e
00000370: 7472 9ebe cab2 efbd f965 15bd 450e 3f3b
00000380: f64e 533d ab07 b63d c12c 993c 7fb6 b2bd
00000390: bf37 46be 531a 21bd b37a dabd e837 09bd
000003a0: f0fe 1c3e e33a 3c3d 7b21 f8bc fce8 ebbd
000003b0: 7ff6 1abe 3f71 c13c da09 2ebe 237c 143e
000003c0: 13d0 e4bd 316b cfbd 7974 8fbd a80b 2e3d
000003d0: 0b8a bdbd 278c 503c cb77 32bd 1d29 843e
000003e0: ea3d 7d3e 2e88 423e a5ad 02be 7d34 f5bc
000003f0: 131f d23c e7aa 1c3e ca76 943c ed6d 173d
0.12910487 0.10311419 -0.10952099 -0.054602668 -0.0796345 -0.25004977 0.03202581 0.025600089
-0.08584016 -0.025159448 0.20333949 0.091223806 -0.008955613 0.19082068 0.12215762 -0.09643087
-0.18248294 0.035230957 0.0535261 -0.11457549 0.13020037 -0.0243382 -0.07300709 -0.07442332
0.005441644 -0.08153586 0.07724508 -0.12471185 -0.041027 -0.10442708 -0.1279203 0.063380264
-0.073465884 -0.11085558 0.11615542 0.05093568 -0.074592754 0.051418222 0.00073654705 -0.18460271
-0.08838362 0.118327476 0.032870166 -0.082924224 -0.016777795 0.1599434 -0.097737424 -0.07034911
-0.06282388 0.40822804 0.26778656 0.041305058 -0.19379899 0.05385045 0.013736054 0.1401511
0.020085853 -0.37624982 0.028808195 0.09424399 0.087809876 0.012060422 0.0010116779 -0.070535
0.060100894 0.1330903 -0.21647854 0.12497186 -0.16552919 -0.20529236 -0.02833722 -0.09014562
-0.08340128 0.17644331 0.16487432 0.026118016 -0.064879276 -0.18576305 -0.10867863 -0.017892128
-0.057812408 0.015383172 -0.1763868 -0.1650931 -0.05840917 0.03459203 0.031189302 -0.08474403
-0.0031945666 -0.076235875 -0.15671909 0.09095684 -0.04759146 0.02961251 0.2482923 0.006286771
0.033255443 0.06577666 0.09487922 0.07474471 -0.001083417 0.07858656 -0.08220444 0.031026633
0.02609011 -0.06869241 0.108006515 -0.11863048 0.025898376 -0.11089776 0.19505444 -0.13218932
-0.018149564 0.07993488 -0.05124271 0.033759344 -0.05456001 0.053376492 -0.14275305 0.052140605
0.06786615 0.039256234 0.22219495 0.08378717 -0.19179456 0.20278239 0.07131225 -0.00075441506
0.056794874 0.043049417 0.043501407 0.09326091 0.07747017 0.030864308 0.021350482 -0.07364837
-0.18261965 -0.076108485 -0.12055925 0.017981218 0.05254252 -0.005716587 0.0670284 0.12516741
-0.058427166 0.089893945 -0.06442123 0.011042326 -0.019834444 -0.09923971 0.054421622 0.025033409
-0.08632451 0.013065502 -0.019458607 -0.122050986 0.011664693 0.071702495 0.04866651 0.0961678
-0.04210311 -0.039703056 0.16430792 0.23055223 -0.009797096 -0.035277754 -0.041036483 -0.08403428
0.17669071 -0.040919315 0.043280393 -0.018866768 -0.011074431 -0.082982905 -0.06805037 -0.042035397
0.10016044 -0.010841367 0.062319096 -0.12591182 0.025663467 0.038268834 -0.01371548 -0.015247668
0.13539785 0.05781715 0.1796894 -0.14802153 -0.17047726 -0.019084502 0.018854387 0.030936625
-0.21008667 0.041666485 0.042204607 0.021947704 -0.022346387 -0.030643549 0.17788681 0.053171195
0.056996416 0.024807388 -0.024134668 -0.08166871 -0.059653856 0.05216077 0.16182056 0.08668594
0.08064416 -0.03504563 0.050830934 0.056413718 -0.07365305 0.064261444 -0.23956208 0.026085015
0.13778476 -0.060923785 0.082011536 0.13956685 -0.30946696 -0.11704023 -0.0364742 0.0029152792
0.051588975 0.08888181 0.018698098 -0.087262146 -0.19357203 -0.039331745 -0.10667934 -0.033500582
0.15331626 0.045954596 -0.030289402 -0.115190476 -0.15133093 0.02361357 -0.16995946 0.1450048
-0.111724995 -0.10127867 -0.07004637 0.042491585 -0.09254845 0.012728727 -0.043571275 0.25812617
0.2473065 0.18997261 -0.12761553 -0.029932255 0.025649583 0.15299569 0.01812305 0.036970068

l1.bias f4 [100]
00000000: 6407 0abe 1ae2 4cbe 9036 343e 2614 91be
00000010: b61d b13e 6da7 b4bd d49c 05bd d598 b2bc
00000020: 7113 af3e d358 72be c706 86bd 93b1 a7bd
00000030: 6b41 6cbd dfff fabd e094 3cbd 3b9e 3fbc
00000040: 8278 26be 5b00 e23c da59 f43d 7b4f 3c3d
00000050: e6bc 983d 6767 e33d b167 733e 120f 623e
00000060: 9ffe 40bc 6ab0 c7b9 c374 8b3c f4f9 86be
00000070: 11ce 833d 660c 353e f664 4d3d 1208 2dbe
00000080: 5404 90be 8a51 ac3c a23b e6bd 3c12 873b
00000090: 2ad0 b43d 4e87 083c 2913 b0bd a713 ef3d
000000a0: 1aa3 b43c a545 d3bd 6b60 843c b534 3c3e
000000b0: e07c 0b3e 602e 603b f1df 7abc eda2 373e
000000c0: b6f2 0dbd 76f7 8abd f3c8 b23d 5e2a 03bd
000000d0: 2b0e 183e 7f7e e3bd 9e4d f63d df4d 79ba
000000e0: ccb6 e0bd 9b42 efbd 3ce1 96be bdd5 293d
000000f0: 5fbd 153e a9cf c13c 5b78 023d c5b3 143e
00000100: e5f1 533e b3aa bbbd df37 12be 8213 fabd
00000110: 585e 76bd eeb2 39be ba3e ec3d 06e8 663d
00000120: c8a9 67bd c102 1c3e 7f00 033e 8ce6 e73b
00000130: 5d36 2a3e 4457 2b3e 317c 573d bb22 a53e
00000140: e2cd 98bc 6765 fa3d bfce e13d faf9 6bbe
00000150: e3b6 9e3d af37 3dbd 0033 473e 52e7 a0be
00000160: ca47 983d 216a 9ebc 2b40 403e 689d 263e
00000170: c433 943d 11d5 ebbb 323f e53d aece b33a
00000180: 04e9 403d e1e5 d7bb 5321 bcbd 9681 443e
-0.13479382 -0.20008126 0.17598939 -0.28335685 0.3459298 -0.088209964 -0.032620266 -0.021801392
0.3419452 -0.23666696 -0.065442614 -0.081881665 -0.057679575 -0.12255835 -0.046040416 -0.01169544
-0.16256908 0.02758806 0.119312 0.045974236 0.074579045 0.11103707 0.23770024 0.22076061
-0.011779456 -0.00038087677 0.01702345 -0.26362574 0.064357884 0.17680511 0.050145112 -0.1689761
-0.28128302 0.021034975 -0.11241843 0.0041220468 0.08828767 0.00833304 -0.085974045 0.1167367
0.02205043 -0.10316018 0.016159257 0.18379481 0.13621855 0.003420733 -0.015312181 0.17933245
-0.034655295 -0.06785481 0.08729734 -0.032022826 0.14849155 -0.111081116 0.12026523 -0.00095102
-0.10972366 -0.11682626 -0.29468715 0.041463602 0.1462302 0.02365859 0.03185306 0.14521702
0.20697744 -0.09163418 -0.14279126 -0.12210752 -0.060148567 -0.18134663 0.11535402 0.05637362
-0.0565584 0.15235426 0.12793158 0.007077044 0.166223 0.16732508 0.052608673 0.3225306
-0.01865286 0.12226372 0.11025762 -0.23044577 0.077497266 -0.046195682 0.19453049 -0.31426483
0.07435568 -0.019337716 0.18774478 0.16270983 0.07236436 -0.0071970304 0.11193694 0.0013718212
0.04709722 -0.006588683 -0.091860436 0.19190058

l2.weight f4 [100, 100]
00000000: cf66 2dbd 9778 ce3c aee3 c73d c4e0 c73b
00000010: ed74 623b 0c43 91bd b488 4ebd 080a bb3d
00000020: 99db 893d 5017 9f3c a517 3fbd c103 31be
00000030: 6ce5 25be de62 c53d 77f6 f63c a9ef 893c
00000040: c7f8 353c fb9c 49bd 4723 b23c 4bbb 773e
00000050: 5399 48bd 3a68 f1bc 4c48 ad3c ee57 c63c
00000060: f144 c9bd 07f3 d7bd 4847 a4bd f5b0 c93d
00000070: b09f 913e fc21 0d3e 4b72 333d 1b24 833d
00000080: 50e2 09be 850d d2bb 0619 ffbb 1380 2dbd
00000090: 13a9 243d c438 cc3d 6ae6 3cbd f9a9 2dbd
000000a0: cab5 f5bd 8663 b4bd b0db 48be c073 913d
000000b0: 248d 21be 7511 7cbb 180f ca3d 3797 4a3d
000000c0: 4f24 943c f536 59be 7234 d3bd 1565 583e
000000d0: 64a4 aa3d 9707 a2bd cfac 86bb 27d6 a3bd
000000e0: 0a6c 9bbd 380d 3bba 6674 253c 45e2 463c
000000f0: 849c 6b3d 5ef5 7ebd e066 11bd 8722 8b3c
00000100: dca2 713e 1e5d 49bd 1af3 033e 8148 17bd
00000110: af32 573e 325f 99bd 4dd1 fdbd 1062 22be
00000120: 08e3 5cbe 9ac7 9ebd 983e 963b f3fd c9bb
00000130: 265b 933d 6257 203e 2289 4f3b beb4 0abe
00000140: 5166 3f3d fb1c 053d dd57 473d 7c4e a5bd
00000150: ae9b 86bd fe76 89be 97b8 66be 1313 99bd
00000160: 45ff a13d 21da 1dbe d2c2 e9bb 1acd 08bd
00000170: f324 4d3e ab14 d7bc b6e6 82bd 6c10 1bbe
00000180: 3f87 8b3d 15ca cdbd beba 9b3d 07bc dfba
00000190: 87c2 f2bd f41f 5c3c 9818 373e 72e0 42be
000001a0: 38cb 223c ae5c f03d 7d0e 0cbc c80a 913e
000001b0: 0043 51bd dad2 25be 7e9d 1ebe 7937 8abb
000001c0: 0c3b d3bd d14e 88bd b69e cb3c 7e55 353b
000001d0: 50f0 9abb edd1 d23a 3536 0f3c 6eaf 133d
000001e0: 6c00 5fbd 9277 8a3d a733 fb3d ac6c 743e
000001f0: 62fa 5a3d 7d98 5fbd c220 8d3d 6bb1 453e
00000200: 2587 70bc daf1 183e bc10 193e c23f 5dbd
00000210: 0259 0cbe 93df d8bd 4ef8 413d 6b8c 59bd
00000220: f31f c6bd d312 1a3d 3dfd bb3d 3279 bebd
00000230: 4b31 0f3c 24a1 2c3e ffd5 e1bd 01e6 0dbe
00000240: 0f0e 343d 7c54 d53d 7941 11bd e5a0 4c3e
00000250: 5423 353d fad7 f8bd e386 3c3d 78ac 4ebe
00000260: 8633 99ba 1653 cebd 797f 2f3e bdf8 b6bb
00000270: e3f7 f33d 190f b0be 2ce8 f73c 5ed7 883d
00000280: a6e0 d03d febf cdbc 0109 fd3d 8c66 5b3c
00000290: f977 6b3e 40d8 03bc 17aa 82bc 1536 d53d
000002a0: b018 5bbe 10d1 74bd 9b1a e13d 06a1 e9bd
000002b0: c9e8 f4bd 053f 143e 40ac 123e 9788 86bc
000002c0: 477a 973d 13d6 093e db5c 8dbc 255b 2d3e
000002d0: 42b4 09ba b118 163d f736 503b 7d61 af3d
000002e0: 0911 8e3a 7937 07be ef89 c03c dcf3 30be
000002f0: 4fcf 0ebe ae30 01bd 4440 893e c022 513e
00000300: c8ab 743e 4c9c 513c b1ff 293e 1771 813c
00000310: 22d6 b9bd 9a75 7cbd ce68 0dbd a2a3 443d
00000320: 5890 35be 6467 0fbe 80a7 cc3c c863 a63b
00000330: a708 913d 2b02 a7bd 899d 4c3c b59e bfbd
00000340: 60c5 6c3e f141 efbc 5a0b 233c a95a be3b
00000350: 2b47 c83d c580 e9bd 5508 79bd f2ba f3bd
00000360: 90f7 cbbd 9282 ac3d f364 8cbe 78aa 71bd
00000370: 2f11 45bd 6d70 32bd 8683 c63b f191 c93d
00000380: 0016 fc3d 3acd 293d 4b8f 333c f013 31be
00000390: d273 29bd 9176 8bbd e15a 91bd 3c15 8dbc
000003a0: 5284 d93d c68a 9a3d 2e41 893d 78d3 8cbc
000003b0: 2fd6 e9bd 7ac9 78bd cec8 e2bd fce5 c5bd
000003c0: eed4 f03d 6606 7bba 96da d8bd 3599 0cbc
000003d0: e56b 9dbc 44cf 44be e69b 343c 29be 9f3d
000003e0: 5a1e ed3b fed4 023e fe3c 1d3d 0e99 4bbe
000003f0: 548b 42be bd55 c13d 1148 983d 4685 63bd
-0.042334374 0.025203986 0.09760223 0.006099792 0.0034554556 -0.07092866 -0.05042334 0.09132773
0.06731338 0.019420296 -0.04665341 -0.17286588 -0.16200799 0.09637998 0.03014682 0.016837912
0.011106676 -0.049221974 0.021745337 0.2419254 -0.048974346 -0.029468644 0.021152638 0.02421185
-0.09827603 -0.10544401 -0.08021408 0.09848205 0.28442144 0.13782495 0.04381017 0.06403371
-0.13465238 -0.006410303 -0.0077849654 -0.04235847 0.040200304 0.09971765 -0.046118177 -0.042398427
-0.11997564 -0.08808045 -0.19615054 0.07102156 -0.15776497 -0.0038462554 0.0986616 0.049460616
0.01808372 -0.2121237 -0.103127375 0.2113231 0.08332136 -0.07911604 -0.004109956 -0.07999831
-0.07588966 -0.00071354536 0.010098552 0.012138908 0.05752231 -0.06224572 -0.0354985 0.016984237
0.23597282 -0.04916107 0.12885705 -0.03693438 0.21015428 -0.0748886 -0.123934366 -0.1585772
-0.2157098 -0.07752915 0.0045850985 -0.0061643063 0.071951196 0.15658334 0.003166743 -0.1354551
0.046728436 0.03249834 0.048667777 -0.0807161 -0.06572662 -0.26848596 -0.22531353 -0.07474341
0.07910017 -0.15415241 -0.00713382 -0.033398725 0.20033626 -0.026254972 -0.06391661 -0.15142983
0.068129055 -0.1004831 0.076039776 -0.0017069586 -0.118535094 0.013435353 0.17880476 -0.19030932
0.009936146 0.11736427 -0.008548376 0.28328538 -0.051089287 -0.16193715 -0.15489766 -0.0042180386
-0.10313997 -0.06655658 0.024855953 0.0027669366 -0.0047283545 0.0016084291 0.008740951 0.036055975
-0.05444376 0.067610875 0.12265711 0.2386958 0.05346144 -0.054588784 0.06891014 0.19305961
-0.0146806585 0.14936009 0.1494779 -0.054015882 -0.13705829 -0.105895184 0.047355942 -0.05311243
-0.096740626 0.03761561 0.09179161 -0.0930046 0.00873978 0.16858345 -0.11027145 -0.13857271
0.04395872 0.10416505 -0.03546283 0.19983251 0.044223145 -0.12150569 0.046027075 -0.20182979
-0.0011688329 -0.10074441 0.1713847 -0.005583851 0.11912515 -0.3438652 0.030262075 0.06681703
0.10199098 -0.025115963 0.12355233 0.013391148 0.22994985 -0.0080471635 -0.015950246 0.10410706
-0.21396136 -0.05976969 0.10991403 -0.11407666 -0.11958463 0.14477165 0.1432352 -0.016422553
0.073963694 0.13460569 -0.017256191 0.169293 -0.0005252996 0.03664464 0.0031771043 0.08563516
0.0010838817 -0.13204755 0.023503272 -0.17280525 -0.1394627 -0.031540565 0.26806843 0.20423412
0.23893654 0.012793612 0.16601445 0.015800996 -0.09074046 -0.06163559 -0.034523778 0.048007615
-0.17730844 -0.14004284 0.024982214 0.005077813 0.070817284 -0.081547104 0.012488731 -0.09356443
0.23122168 -0.029206248 0.009951437 0.0058091474 0.09779199 -0.11401514 -0.06079896 -0.11900891
-0.09959328 0.08423342 -0.27420768 -0.059000462 -0.04811209 -0.04356425 0.0060581593 0.09842289
0.12308884 0.041455485 0.010959457 -0.17292762 -0.04137022 -0.06809724 -0.07097412 -0.01722204
0.10620941 0.07546 0.06701885 -0.01719068 -0.114178054 -0.060739018 -0.11073457 -0.09663007
0.11759363 -0.00095758436 -0.10588567 -0.008581449 -0.019216487 -0.1921969 0.011023497 0.07799942
0.007236284 0.12776563 0.038388245 -0.19882604 -0.18998462 0.094401814 0.074356206 -0.05554702

l2.bias f4 [100]
00000000: 803e 303e 38cc 193d 0486 b5be 4f34 d43d
00000010: 364c 1bbd 9a11 003e 1ab6 65be 9d8a 8abe
00000020: fcee 82bc 1d84 0c3c ee9a 4ebd 6a07 25bd
00000030: 7004 47be 1ffb 613d 16d2 853e be59 b43d
00000040: fa80 993c 59a2 c8bd fa5e f53d 617a 1abd
00000050: 8227 84be 905e b13c 1dfe eabd 8fd8 763e
00000060: 5482 5d3d 2d15 a3bd 954b f4bc e413 b13e
00000070: 4835 a13c dc0a 12be bd62 0bbe 3a8e 6fbb
00000080: ee5d f73d be1d b53e f775 6a3d b99b 593e
00000090: 543c 1fbe 20aa 1a3e c8b6 313d 662b 65be
000000a0: 976e 033e 7d7d fabc 6e51 243d 0449 2cbe
000000b0: e263 8bbe 50e1 78bd 2857 e63d 8fb3 8fbd
000000c0: 8a84 9dbd b2ab b23d 7639 e4bc 2d50 533e
000000d0: 514d 443e f2ec a0be 86f7 0cbe 4a60 96be
000000e0: 9fce 7ebe 193a af3d e8c6 c33d 533e 6bbe
000000f0: b024 af3b 5b94 9e3e 3523 333d 5d06 8abe
00000100: 0409 663d b670 acbe 799c 263d 7ba8 d93d
00000110: e1cb 463e ca8c 25be f17c bbbd c21d 963e
00000120: ce2d 283e 06d3 0cbe 433e 423e 34c9 b0bd
00000130: c700 39be 95fa 153e 077f 5e3e cc45 a0be
00000140: 91d3 013e ff4c 0e3e caf7 11be 0295 4cbe
00000150: 5401 193d a869 b73e f3ea 8f3e 9bc8 293e
00000160: d8ae 87bd bf35 f8bd b539 2f3b 5040 40be
00000170: 6891 fa3d 696d 093e 2584 093e 1b5c 62bc
00000180: 7da8 a43d 8463 d63d 8719 823d 36e5 6bbc
0.17211342 0.037548274 -0.35453808 0.103615396 -0.037914477 0.12506714 -0.22432747 -0.2705888
-0.015983097 0.00857642 -0.05044072 -0.040290274 -0.19435287 0.05517113 0.26136845 0.088061795
0.018738259 -0.0979659 0.11981006 -0.037714366 -0.25811392 0.021651536 -0.114742495 0.24106048
0.05407937 -0.07963023 -0.029821197 0.34585488 0.019678727 -0.14261955 -0.13611884 -0.003655328
0.120784625 0.35374254 0.057241406 0.2125081 -0.15550357 0.1510396 0.043387204 -0.22379836
0.12835155 -0.030577416 0.04011672 -0.16824728 -0.27224642 -0.06076175 0.112470925 -0.0701667
-0.076912954 0.087241545 -0.02785943 0.20636053 0.19170119 -0.31430775 -0.13766298 -0.29370338
-0.24883507 0.08556003 0.09559423 -0.22972994 0.0053449497 0.3097256 0.043734748 -0.2695798
0.05616094 -0.33679742 0.040676568 0.10627838 0.19413711 -0.16166988 -0.0915469 0.29319578
0.16423723 -0.13752374 0.18969063 -0.086321265 -0.18066703 0.1464637 0.21728145 -0.3130325
0.12678362 0.13896559 -0.1425468 -0.19978717 0.037354782 0.35822797 0.2810894 0.16580431
-0.06625146 -0.12119626 0.0026737277 -0.18774533 0.12234765 0.13420643 0.13429315 -0.013815905
0.08039949 0.104682 0.06352525 -0.01439791

l3.weight f4 [18, 100]
00000000: 3439 60bd 10af 25be b707 123e 4356 0f3c
00000010: 2086 753e a5a5 883d d0f9 fe3d 8bfa 94bd
00000020: 66c5 673d 3fa1 9abd c174 353e e46d 823c
00000030: 12e5 373e f048 333d cf98 913d 1083 5bbd
00000040: 7b7a b43c 7466 50be 2302 e2bc a8d5 213e
00000050: f353 093e 1f07 86bd 308d 713e 3ccc 383d
00000060: daf0 3c3e 57f7 b4bb 29f8 f5bd 5796 f7bd
00000070: 8b9d a23d a99e 0c3d 3840 b23e 9fd3 5dbe
00000080: 698d 413d 9516 62bd 0cca 893c 1e38 97be
00000090: 65a3 bf3e 2b91 6a3e 182b 4e3e 90d0 e73c
000000a0: f03f c73d f4db bebd dc74 c5bc 6ae9 6e3e
000000b0: cb9a 1f3d 66f1 3e3d 6692 86bc 7329 693d
000000c0: c6fc f3bd 9f05 923d 4cc1 373e 5784 9e3c
000000d0: 44bd 7dbd a68e 9c3e a20f d83d bd9d dabc
000000e0: 3045 ec3d 6287 673e 6c3d c03d 8b8a fabb
000000f0: d9bc c23d df14 103d 25e5 df3d 3711 febd
00000100: 3387 52be e580 2a3e 98ab 6e3e 90ea 2ebe
00000110: 6221 6dbe 1778 073e 2db8 9abd cb41 5a3c
00000120: 748a ecbd 7dae 19be 1f42 db3d 79c1 b83c
00000130: 53fd 373e d81a 0a3e 8097 bf3d 6322 bc3d
00000140: 136d 1c3d f798 9c3e a6b3 323e 9b88 013e
00000150: 03cd cf3d 7ab9 8a3e f538 96be d668 c1bd
00000160: 7119 c73d 3395 553a 3211 81bd c6a7 fb3b
00000170: c140 97bd b35d cb3d 5c3a 08bd c298 e0bd
00000180: beeb 89be 257a ed3d 8d54 303e 3d73 963d
00000190: 9ed5 b8be 0bf5 a1bd bea4 533e f2a4 0dbe
000001a0: 61e4 c53d affe acbd 1911 c13b debe a73e
000001b0: 0cdd 283d 5bcd 393e 5a59 453e da8a 4f3e
000001c0: 4846 a23e 7459 7bbd 056d a9bd 02a5 b03d
000001d0: 5b6a 5dbc a343 f13d 97b8 31be 3045 133d
000001e0: b9c6 db3d 5763 d8bd 1f9e a2bd 25f3 12be
000001f0: f23d 273d 500d 69bc 13ce d0bd 78df b5bd
00000200: 4f0f c13d 50c5 d7bb ae37 a93d 7a6b a2bc
00000210: b87c 24bd d4e1 98be a5ad be3d 9d79 a0bd
00000220: 8ac5 05bd bd89 cf3d 6625 c73d 27c5 c7bc
00000230: 284f febc ecc8 d4bd 6f7b 183e 92da a33d
00000240: f69e f83d 3217 753e 9f84 cb3c c055 e33d
00000250: 593d c03d ec95 383e d9bd 413e d0c3 42be
00000260: 7720 5f3d 00af d23d db82 f23d 83e9 193d
00000270: 0783 30bd bfac ba3d 1b08 763e 3673 ab3d
00000280: 5a0e 9cbd 94d0 63be 1113 1dbd 2c9f 2a3e
00000290: 9f66 3abe b6de 983e 751c 18be 80c7 14bd
000002a0: 251c 253b e9f1 1a3e 4987 1e3d dd55 e6bd
000002b0: f34a 6abe 64f5 cd3c 3dfb 62be f96f 2dbe
000002c0: 11f9 c83d 55ac 583c 0df3 c73d e2d7 8c3e
000002d0: a2f8 ba3d 5825 e1bd adb5 153e 9fc6 8b3c
000002e0: e2c7 8e3e ca43 53bc 5f02 1abe f8c4 1a3b
000002f0: 4c16 0dbd d783 a83c 08d3 29bc a033 0bbc
00000300: 4169 3a3b 7619 bf3a 3b1e bebd 9e19 4a3e
00000310: 935b d43d 8c6d 1bbe fc9c 173e 692f 89bd
00000320: 1a76 ffbd 3ade ef3a 8a1d c63e 26ed a43d
00000330: 6637 363e 55c5 213e 4564 f13d 77ad adbc
00000340: 2e11 4bbe 60a0 01bd cb9f d13e 03b0 013e
00000350: 5d79 253c b91d fd3c a768 ee3d 22e1 26bd
00000360: 1dd0 0ebe 17c8 f8bd 4292 57bc 5e9c 083e
00000370: 0422 113e 4faa ea3d 4433 6a3e 058a 30be
00000380: d242 083e 16c0 083e 810c 74bd 3d01 4c3d
00000390: c630 453e 8674 123e e61f 243e cbea 2dbe
000003a0: adfd a03d f4d1 5abe ef27 f13d 1285 c13b
000003b0: c9ca ea3d 64d6 063e b4e7 783e e13f 543e
000003c0: 305f f63d 1aea 8abd 43af 8a3d 0068 b43c
000003d0: cd52 1a3e d33f 813d 10d2 03be cef9 233e
000003e0: 3b55 c23d 68a5 793d 3517 b8bd ea52 26bc
000003f0: 41a8 de3d 630b 29bd 699d 713e b7b3 4bbe
-0.054742053 -0.16180062 0.14260755 0.008748594 0.23976946 0.06672219 0.12449992 -0.0727435
0.05658474 -0.075502865 0.1772032 0.01592154 0.17958477 0.04377073 0.07109224 -0.053591788
0.02203106 -0.20351583 -0.02758891 0.1580416 0.1341093 -0.06544327 0.23589015 0.045116648
0.18451253 -0.0055226493 -0.120102234 -0.12089222 0.07940205 0.034330998 0.3481462 -0.21662758
0.047254 -0.055197317 0.016819976 -0.29535002 0.37429348 0.2290694 0.20133626 0.028297693
0.09728992 -0.093192965 -0.024103574 0.23331228 0.03896598 0.046616934 -0.01642723 0.056924295
-0.11913447 0.071299784 0.1794483 0.019350214 -0.061948076 0.30577582 0.10549857 -0.026686544
0.11536634 0.22610238 0.09386715 -0.00764591 0.09508676 0.035176154 0.10932378 -0.12405627
-0.20559387 0.16650732 0.23307645 -0.17081666 -0.23157266 0.13229404 -0.0755466 0.01332135
-0.11549845 -0.15007968 0.10705971 0.022553192 0.1796773 0.13486803 0.09355068 0.09186246
0.03818996 0.30585453 0.17451343 0.12649767 0.10146525 0.27094632 -0.2934033 -0.09443824
0.097216494 0.00081475376 -0.06302108 0.0076799123 -0.07385398 0.09929981 -0.03325878 -0.10966636
-0.2693767 0.11595563 0.17219754 0.07346199 -0.36100477 -0.07908066 0.20668313 -0.13832453
0.096627004 -0.084470145 0.005891931 0.32762808 0.04122643 0.18144743 0.19272366 0.20267811
0.31694245 -0.061364606 -0.08272747 0.08625223 -0.013514127 0.11780479 -0.17355572 0.035954654
0.10731263 -0.105658226 -0.079403155 -0.14350565 0.04083056 -0.014224365 -0.101955555 -0.08880514
0.09426748 -0.006584801 0.08262573 -0.01982664 -0.040158004 -0.29859793 0.09310464 -0.07835696
-0.03265909 0.10133693 0.0972393 -0.024386002 -0.031043604 -0.10389885 0.14890836 0.08000673
0.121396944 0.2393463 0.024843512 0.1110034 0.09386701 0.1802594 0.18920077 -0.19020009
0.05447432 0.10287285 0.11841365 0.03757621 -0.043093707 0.0911498 0.2402653 0.08371584
-0.07619925 -0.22247535 -0.03834826 0.16662282 -0.1820321 0.29857415 -0.14854605 -0.03632307
0.0025193777 0.15131344 0.038703237 -0.11246846 -0.22880153 0.025141425 -0.22166152 -0.16937245
0.09813131 0.013224681 0.09763155 0.27508456 0.09129454 -0.10993451 0.14620085 0.017062483
0.27886873 -0.01289458 -0.15039967 0.0023615938 -0.034445092 0.020570679 -0.010365255 -0.008496195
0.0028444084 0.0014579732 -0.0928311 0.19736335 0.10369029 -0.15178508 0.14805979 -0.06698496
-0.12473698 0.0018300482 0.38694412 0.08053045 0.1779457 0.15797932 0.11786703 -0.021200879
-0.19830772 -0.031647086 0.40942225 0.126648 0.010099736 0.030897962 0.116410546 -0.040742047
-0.13946576 -0.12147539 -0.013157429 0.133409 0.14173132 0.11458265 0.22871119 -0.1724015
0.1330674 0.13354525 -0.059582237 0.04980587 0.19256887 0.14302263 0.16027793 -0.16984098
0.07860885 -0.21369153 0.11775195 0.005905756 0.114644594 0.13167721 0.24307138 0.20727493
0.12029874 -0.067829326 0.0677171 0.022022247 0.15070648 0.06311002 -0.12873101 0.16013262
0.09488913 0.06094876 -0.089888014 -0.010151604 0.10871936 -0.041270625 0.23595203 -0.19892775

l3.bias f4 [18]
00000000: dc8b 4cbe a554 25be 1837 513d ea56 4ebd
00000010: d4af a6be 3740 a4be e602 923e f68f 9ebe
00000020: 98c3 8f3e eb7c 02bf 4d73 a23d 806d 52be
00000030: 1fa2 b1be 548a 94be 5713 a53c 752d f5bd
00000040: e7d0 063d 7668 43be
-0.19975227 -0.1614557 0.051077932 -0.050375856 -0.3255602 -0.32080242 0.28517836 -0.30969208
0.28078914 -0.5097186 0.07932148 -0.20549583 -0.34694 -0.29011786 0.020150824 -0.11971561
0.03291407 -0.19082817
