LARA/data/result/g_0.pt (torch, 87349 bytes, 7 tensors)

embedding.weight f4 [36, 5]
000000 93 a6 f3 3d 18 0a 85 be 93 e0 17 be a7 3f f8 be
       0.11897006 -0.25984263 -0.14831762 -0.48486063
000010 cd 68 3c 3e c8 fb cf bc d0 b3 a1 3e 77 56 3b be
       0.18399353 -0.025388613 0.315825 -0.18294702
000020 38 96 53 3e fd c7 c5 3d f9 f3 b6 be 36 6a e0 bd
       0.20662773 0.09657285 -0.3573301 -0.10957758
000030 6e 28 42 be a5 c9 0e be 6a 6f 70 3e 63 2e 8a 3e
       -0.18960735 -0.13944109 0.23480001 0.26988515
000040 90 c8 c9 3e 7e 7a ac 3e e3 db b1 3d 5b ab 33 3d
       0.3941083 0.33687204 0.08684518 0.04386459
000050 8c 5c f8 be 78 e2 2f bd db 30 e8 3d 96 9d 9d bd
       -0.48508108 -0.042940587 0.113374434 -0.07696073
000060 49 f4 cc 3e 66 1b 1c bf 38 44 31 3e 35 fc 69 be
       0.40030125 -0.60979307 0.1731118 -0.22850116
000070 86 da 9f 3e de 6b f7 bc 33 e6 89 3d d1 b4 e0 3c
       0.31221408 -0.030202802 0.0673336 0.02742997
000080 20 44 19 be 93 9c 3c 3e b6 45 10 be f3 24 19 3d
       -0.14967394 0.18419103 -0.14089093 0.037388753
000090 d8 62 8e bd 34 23 02 be 92 99 68 3d 80 56 a5 3d
       -0.06952447 -0.12708741 0.05678708 0.08073139
0000a0 3f 00 2e 3e 18 79 cd bd 0d 1f 38 bc 91 89 f5 3d
       0.16992281 -0.100328624 -0.011237872 0.11989129
0000b0 ca 27 2b be e2 6f 5c 3e 5e cc 78 3c 65 d7 66 3e
       -0.16714397 0.21527055 0.015185444 0.22543104
0000c0 51 c8 d7 3d b3 2e ca be 39 f2 83 3d d8 5c 09 3f
       0.10536254 -0.39488754 0.06442685 0.53657293
0000d0 71 7e 7a be 86 dd 94 be 2f 7a cb 3d 3e ff 21 be
       -0.24462296 -0.2907526 0.09935414 -0.15820023
0000e0 b4 fc 49 3e 00 ce 1e be 7e f7 1d bd 4d 7d 96 3e
       0.19725305 -0.1550827 -0.038566105 0.29392472
0000f0 f6 22 63 be 52 10 7a 3e c4 03 fa be d1 3e 29 be
       -0.22181305 0.24420288 -0.48830998 -0.16527869
000100 ec a7 26 be b2 50 90 be 94 73 28 3d 7a c4 11 be
       -0.16274995 -0.28186566 0.04112585 -0.14235106
000110 22 c2 3c 3e 8b e1 86 3e cd 0c c6 3b 14 57 84 be
       0.18433431 0.2634395 0.0060440064 -0.25847685
000120 57 48 90 3e 7f e3 1f 3e 35 37 66 bd 9d cc 51 3e
       0.2818019 0.15614127 -0.056204993 0.2048821
000130 cb 2e fe be c2 23 6a 3e 17 1c 15 be 70 88 42 be
       -0.49645075 0.22865203 -0.14561497 -0.1899736
000140 2c f3 01 3e 52 41 d3 3e e5 59 b8 bd 46 7c 86 be
       0.12690419 0.41260773 -0.09001521 -0.26266688
000150 1c 65 50 be 50 67 9c 3d 9b 16 2d be bd 79 b1 3e
       -0.2035107 0.07636893 -0.16903155 0.3466319
000160 77 ab db bd c3 2a b7 be 90 58 09 be e4 75 d6 bd
       -0.10726064 -0.35774812 -0.1341269 -0.104717046
000170 f3 46 18 be 46 ed 25 be 90 7e 35 3d e0 c4 81 bd
       -0.14870815 -0.16203794 0.044310153 -0.06336379
000180 0b 6e 96 bd 2e b1 4d bc a2 4e 3f 3e 9c 91 db 3b
       -0.07345208 -0.01255445 0.1868234 0.0067007076
000190 04 cf 60 3e 4a 53 02 3e 8c 34 ca 3e 25 2b ca be
       0.2195397 0.12727085 0.39493215 -0.39486042
0001a0 2c e5 b2 3d d7 40 f7 bd 0f 4b 0b 3d 27 68 5c 3e
       0.08735117 -0.12072914 0.03400713 0.21524106
0001b0 b1 e3 19 be 94 10 fc bd 37 dd ee 3d 13 59 12 be
       -0.15028264 -0.123078495 0.11663287 -0.14291792
0001c0 24 2d 4e 3e 9d 97 98 be d4 e6 fd 3d e0 15 cb 3e
       0.20134407 -0.29803172 0.123975426 0.39665127
0001d0 dc 2d 62 3d f5 f3 4d 3e 6a 07 e6 be df a9 33 3f
       0.055219516 0.20112593 -0.4492753 0.7018108
0001e0 9b fd 1c 3d f3 7a 84 bd 76 4d 72 3d 93 5e 28 be
       0.038327795 -0.06468763 0.059155904 -0.16442327
0001f0 4b 56 6b bd 7f 42 a2 bd 3e 6b 08 be 6a 93 87 3e
       -0.057455342 -0.079228394 -0.1332216 0.26479656
000200 83 30 4d 3e fd 21 db bc a1 00 aa bd 4f 73 c9 3e
       0.20038037 -0.026749605 -0.08300901 0.39345786
000210 1d 47 0b be db 01 b0 be 54 a8 8d 3e 8e ea 86 3e
       -0.13601346 -0.34376416 0.27667487 0.26350826
000220 2e 0b cc bd 8a 5c fc bd f9 73 5b 3e a2 b3 08 be
       -0.0996307 -0.12322338 0.21430959 -0.13349774
000230 0c 25 93 be 30 b6 59 be c0 16 50 3e 43 13 8d bd
       -0.28739202 -0.21260905 0.20321178 -0.068884395
000240 3e 0a 75 3e f5 c7 22 be 75 29 2d 3c e2 c7 b8 bd
       0.23929688 -0.1589659 0.010568966 -0.090224996
000250 54 8f 8a 3d 33 83 3f 3e ec db 4e 3d 53 e5 bd bd
       0.06765619 0.18702392 0.050502703 -0.09272256
000260 a5 83 28 3e 59 bd 58 3e f3 fa 15 be 1e a7 8a be
       0.16456468 0.2116598 -0.14646511 -0.27080625
000270 90 a6 86 be 3c cc 87 be f4 6a a4 3e ae 9f 75 3e
       -0.26298952 -0.26523006 0.3211285 0.23986694
000280 75 0f 10 bd da ce 1d 3e f4 90 19 3e c2 08 84 3e
       -0.03517099 0.15410939 0.14996701 0.25787932
000290 53 26 48 be c8 41 41 be a0 d9 d4 3c de 50 16 3e
       -0.1954587 -0.1887275 0.025982678 0.14679286
0002a0 f6 d9 97 be d1 1a 52 bd f0 fd b3 be 6c 67 4e be
       -0.29658478 -0.051295105 -0.35154676 -0.2015664
0002b0 65 0b 4d bd f7 20 f0 ba 89 13 f9 be 4f 0c ae 3e
       -0.050059695 -0.0018320371 -0.48647717 0.33993766
0002c0 2b 14 95 bd 0d 4b 5c be be b2 24 be a3 84 d7 3e
       -0.07279237 -0.21513005 -0.1608381 0.4209338

l1.weight f4 [100, 90]
000000 54 95 85 bb c9 fd 16 3e ef 42 03 be 98 c6 43 3d
       -0.004076639 0.14745249 -0.12818502 0.047796816
000010 91 70 a0 3d 81 30 af bd 4f 2b 39 bc 60 45 0d 3e
       0.0783397 -0.08554173 -0.0113018295 0.13795996
000020 ea 18 05 3e 9e 51 55 3b ca 13 87 3d 60 bc f7 bc
       0.12997785 0.0032549868 0.06595571 -0.030241191
000030 98 64 9f bd a9 3a 79 3d 86 12 67 3d a3 18 00 3e
       -0.077828586 0.06084696 0.05641415 0.12509398
000040 a4 43 87 bd 9f 5c 26 be 97 d1 f4 bd e7 b9 1c 3d
       -0.06604698 -0.1624627 -0.119540386 0.038263228
000050 8c ab 09 be 75 e8 b8 3c ba 78 1d be 9d 56 ac 3d
       -0.13444346 0.022571782 -0.15378085 0.08414958
000060 d3 67 81 3b 89 bb 9e 3d 6f 6d a4 3c 28 2d 0a 3c
       0.0039491444 0.07750613 0.020071713 0.008433618
000070 5a 35 82 3e d9 83 57 3c 4c 86 df 3c bd c4 40 3c
       0.2543133 0.0131539935 0.027285717 0.011765656
000080 00 1c 3c be 5d 8a 49 3e a2 28 0b bd 36 c4 75 bd
       -0.18370056 0.19681688 -0.033974297 -0.060001574
000090 bf 9f a1 bd d5 fa a2 3d 61 79 d5 3d 01 20 45 3e
       -0.07891797 0.07957999 0.10423542 0.1925049
0000a0 56 36 86 3d 91 62 8d bd 82 4d a8 3d 15 fc 05 be
       0.065533325 -0.06903566 0.082179084 -0.13084443
0000b0 fe f5 16 3e 7f e1 0e bb 5d 45 9d 3d 35 69 5f bc
       0.14742276 -0.0021801887 0.076792456 -0.013635923
0000c0 3c 26 5b 3d 07 09 39 3b 7e 53 5d 3e 53 a8 85 bd
       0.05350326 0.002823414 0.21613881 -0.06526246
0000d0 46 a2 1e 3e 6a 0b 4d bd 06 0e fe bd 84 1c 3a 3e
       0.1549159 -0.050059713 -0.124050185 0.1817494
0000e0 03 06 1e bc d2 89 de 3d 2d 9f 89 bb d8 bd e1 bc
       -0.009644988 0.10866131 -0.0041998834 -0.027556345
0000f0 b1 37 0b 3e bc 52 03 3e 5b 13 70 be 7a ee 85 3d
       0.13595463 0.1282453 -0.23444884 0.065396264
000100 1f 37 ee 3d c4 97 17 bc 1b 26 03 be 8e 7b 8d 3d
       0.11631607 -0.009252492 -0.12807505 0.06908332
000110 d9 8c 99 3d 63 1f 13 3d 4f df 60 be 7a 4f 6d bd
       0.07497568 0.035918605 -0.21960185 -0.057937123
000120 35 c5 f7 bd f2 00 28 3d 29 05 7a be c6 71 fa 3c
       -0.12098161 0.041016527 -0.24416031 0.03057183
000130 e1 ea 23 3d 4f 1f 2f be e1 1e 15 3e f3 5c c0 3c
       0.04001892 -0.17101787 0.1456256 0.023481822
000140 e2 b9 5d 3d af 4a 27 be 72 07 97 bc f9 47 8a 3d
       0.05413235 -0.16337083 -0.018436167 0.06752009
000150 a6 c8 0e 3e 57 8e ea 3d c7 52 12 3d 5f fb 8b 3d
       0.13943729 0.114529304 0.035723474 0.068350546
000160 0a 8f 29 3e 87 93 84 3d 77 df 05 be c2 9f 25 be
       0.16558471 0.06473451 -0.13073526 -0.16174224
000170 06 d8 12 3e 81 d2 94 bd 38 7c bb bc 14 b7 a2 3c
       0.14340219 -0.07266713 -0.02288638 0.01986269
000180 79 2b ff bc c9 b0 98 3d dc ef 0b be f9 8f 21 3b
       -0.031148659 0.07455594 -0.13665718 0.0024652465
000190 50 9c 9f 3d db 83 74 bd b4 ea 69 3d 9d f7 8a bd
       0.07793486 -0.05969606 0.057108596 -0.0678551
0001a0 5b f4 25 bd de bf cc 3d c7 ff 8b 3b ef d8 03 bd
       -0.04051624 0.09997533 0.0042724344 -0.032189306
0001b0 54 4d 94 bd 41 b5 63 bc 12 c7 73 3e dd c7 3f 3e
       -0.07241312 -0.013898195 0.23806408 0.18728586
0001c0 51 4d a9 3d d8 a4 cd bc 9c 87 42 3d f7 31 a5 3d
       0.082667 -0.025103018 0.04749261 0.08066171
0001d0 05 6d c0 bd 5f ad 27 3e 6f 57 03 bd 1e 03 c4 3d
       -0.09395794 0.1637473 -0.032065805 0.09570907
0001e0 a2 28 9c bc f3 88 8e bd f5 cf 0a 3d 11 05 68 be
       -0.019062344 -0.06959715 0.03388973 -0.22658183
0001f0 b6 55 9f 3d 64 ea a1 3a 0a e7 ad 3d ac 42 03 3e
       0.0778002 0.0012353179 0.08491333 0.12818402
000200 5b 27 1f be 6c a1 e0 bd d6 bc 06 bd d5 bb 34 3d
       -0.15542357 -0.10968289 -0.03289493 0.044124443
000210 cf 5c 29 3e 0e c2 09 be 53 9c f4 bc ec 13 76 bd
       0.1653931 -0.13452932 -0.029859697 -0.060077593
000220 20 65 28 be 24 78 23 3d 39 26 1e bd 73 4d 4f 3d
       -0.16444826 0.039909497 -0.03861067 0.05061097
000230 53 0c 81 bd ab d3 b2 bd 9a 45 5a bd cf 3f ca bd
       -0.06301179 -0.08731779 -0.053289033 -0.09875452
000240 38 f9 19 be 56 36 c0 bc 5b 7b b5 ba 4b 86 c7 bd
       -0.15036476 -0.02346341 -0.0013845967 -0.09742411
000250 73 85 42 be fd 2e 71 bd 47 20 9a 3d 81 e1 cf bd
       -0.1899622 -0.058882702 0.07525688 -0.10150433
000260 bb 1f 5d 3d a9 3a 38 3e 61 57 59 3d a1 f0 60 bd
       0.05398534 0.17991127 0.053061847 -0.05491698
000270 84 77 4b 3b 2e 84 0c 3d b4 c6 ed 3c 9c f5 a1 ba
       0.0031046579 0.034305744 0.029025413 -0.0012356522
000280 91 86 c2 3c 40 79 a9 3d 5d 86 1b bd f9 1c 72 3d
       0.023745807 0.0827508 -0.037969936 0.05910966
000290 54 60 17 3d 23 8c ee 3d 88 9d e7 bd 13 b6 94 3d
       0.0369571 0.11647823 -0.113093436 0.072612904
0002a0 05 af 89 3e a7 37 90 bc a6 5b 74 3d 9c 3d b7 bd
       0.26891342 -0.017604662 0.059657715 -0.08947298
0002b0 7a a0 e0 3d 24 2c 1a bd 78 9e d3 3c 2c 2a d6 bd
       0.109681085 -0.037639752 0.0258324 -0.104572624
0002c0 f6 21 89 3c b2 43 cb 3d 42 23 82 bc b5 2b ce 3c
       0.016739827 0.09925021 -0.015885953 0.025167326
0002d0 41 96 8e 3c a3 a7 86 bd 3d e9 41 3d c3 2d a2 bd
       0.017405631 -0.06574943 0.047341574 -0.079188846
0002e0 a3 dd 98 bc 09 57 3b 3d a8 a0 f9 3d d3 17 0d be
       -0.018660372 0.0457373 0.12188846 -0.1377862
0002f0 2a ec c9 3d 6e 39 00 3e 79 9f 8c bd 07 0d 4c be
       0.09859498 0.12521908 -0.068663545 -0.19926845
000300 89 2e b1 bc 51 5b 8d bc b1 ac 7d bd 79 17 fb bb
       -0.021628635 -0.017255457 -0.06193227 -0.0076627103
000310 b9 86 da 3d 36 19 f1 bd f7 8e 96 bd fc e8 c0 bd
       0.106702276 -0.11772387 -0.07351487 -0.09419438
000320 84 88 04 bd c7 97 18 3b bb 14 8d bd 63 c8 41 3b
       -0.032356754 0.0023283826 -0.0688872 0.0029568903
000330 ee f9 ac bc fb f5 cb 3d 9f e0 d7 bd 9d 53 a3 3d
       -0.02111527 0.099590264 -0.1054089 0.07974932
000340 34 ae df bc 16 d5 6e bd db a4 5d bc ac 34 23 3d
       -0.027304746 -0.058308683 -0.013528074 0.039845154
000350 b9 2a ef 3d ec 29 a6 3d 80 d4 bb bc 05 10 00 3e
       0.116780706 0.08113465 -0.022928476 0.12506111
000360 6b e4 e5 bd 7a ba f2 3d 4c 67 be 3d e1 74 78 bd
       -0.11225208 0.11851974 0.09297046 -0.06065834
000370 f8 d8 9c 3d 6f 61 92 bd 3f 6b f0 bc 01 a2 06 bd
       0.07658571 -0.0714749 -0.029348014 -0.032869343
000380 94 42 b0 3d 40 dc 08 3e 03 13 64 3d 3f d5 bb 3d
       0.08606449 0.13365269 0.055682193 0.09171533
000390 7c d2 07 3a 56 9a a7 bb 84 0e e2 3d 95 be bf bb
       0.0005181206 -0.005114834 0.11037925 -0.0058515766
0003a0 98 14 90 3c 49 17 85 3d cd 78 1b 3e b9 10 96 3d
       0.017587945 0.06498582 0.151828 0.07327408
0003b0 dd 36 ce bd 98 8e 88 3c 5e d2 1e 3e eb 22 bc bd
       -0.10069058 0.016669556 0.15509936 -0.091863476
0003c0 c2 cf 80 3c a3 91 9c bc 3c df d6 bd 96 61 db bc
       0.015724067 -0.019112414 -0.10491797 -0.026779931
0003d0 18 e7 3b bd 03 8d 1a bd 33 6f 7f 3e 95 34 34 3e
       -0.045874685 -0.037732136 0.24944763 0.17598183
0003e0 4f 6d 42 bd 30 c4 3b bd c6 b0 18 bd 96 41 05 3b
       -0.047467526 -0.045841396 -0.03727796 0.0020333282
0003f0 64 d1 5d 3e 10 74 74 bd 2d 09 c7 bd ef fa 2f 3c
       0.21661907 -0.059681 -0.09718547 0.01074098

l1.bias f4 [100]
000000 26 f9 bf 3d 4f 2b 4b be 59 52 b3 3d a1 26 98 3e
       0.09373693 -0.1984074 0.08755941 0.29716972
000010 3a 57 1d 3e 4a e6 9c bd dd 0f 27 bc 2a c6 02 3e
       0.15365306 -0.07661112 -0.010196653 0.12770906
000020 2e 25 3e bc a0 ce 52 3e b6 f2 82 3d 00 0b dc 3d
       -0.011605544 0.20586634 0.0639395 0.107442856
000030 ca 65 98 3d 57 b7 5c 3d 94 d6 56 be ab 87 68 3d
       0.0744129 0.053885784 -0.20980293 0.056770008
000040 fc 96 1b 3c 52 38 0a 3e 80 08 cd bd a8 39 ce 3d
       0.009496447 0.13498047 -0.10011387 0.10069591
000050 79 af 71 be 6a f1 1d bd 0a 7a 9f bd 47 e8 98 bd
       -0.23602094 -0.03856031 -0.07786949 -0.074661784
000060 7b 39 58 3e 74 82 f2 bd 46 ff 8b be 79 f3 06 3b
       0.21115677 -0.11841288 -0.27343196 0.0020591898
000070 c2 08 50 3e c0 76 53 bd 0b 2d 58 3c 3a 42 18 bd
       0.20315841 -0.05162692 0.013194333 -0.037172534
000080 2d 2f 62 3e 69 1b 16 3e 01 6a 1f bd f3 1f 30 be
       0.22088309 0.14658894 -0.038919453 -0.17199688
000090 64 b6 60 be 13 9e a2 3d 2e f2 c2 bd 84 74 c9 3d
       -0.21944577 0.079403065 -0.09518848 0.09836677
0000a0 2f d4 62 bc b8 69 47 be d2 82 32 be 33 b1 a0 bc
       -0.013844534 -0.19473922 -0.17432716 -0.019615745
0000b0 39 1f 34 bd af 63 bd bd 0a 82 04 bd 6e 93 ac 3e
       -0.04397509 -0.09247529 -0.032350577 0.3370623
0000c0 c4 64 55 be 0d 2f d9 3c b0 7b b4 3d 9b 2d 13 3e
       -0.2083922 0.026511693 0.08812654 0.14372866
0000d0 79 cc 71 b9 ea e4 c2 bd fe 52 e3 bd 6d 9e 66 3e
       -0.00023059723 -0.09516318 -0.11099814 0.22521372
0000e0 8b a2 2b 3e 69 00 5a 3e 6c 77 8e 3e 70 73 f8 3c
       0.16761224 0.21289219 0.27825487 0.030328482
0000f0 15 66 e4 3c c3 dc d3 3d a7 92 96 3d 9d 5b 3b 3e
       0.027880708 0.10344841 0.073521905 0.18296666
000100 51 fe aa bd 74 00 04 3e 50 1e 5f 3d 49 1c 19 be
       -0.08349288 0.12890798 0.054472268 -0.14952196
000110 b4 09 29 3a 68 87 ca bd 5e e2 b2 3d 78 68 35 be
       0.0006448284 -0.09889108 0.08734582 -0.17715633
000120 17 a5 7f 3c 6e c2 f0 bd 12 c6 0e 3e e1 9c 63 3c
       0.015603325 -0.117558345 0.13942745 0.013892383
000130 d0 30 ef 3c d7 06 e2 be aa 3e a7 be 33 0f 92 3c
       0.02919808 -0.44145843 -0.32664996 0.017829513
000140 26 70 66 be 93 01 80 3d 77 e5 4e bc 5a 32 b0 3d
       -0.22503719 0.062503 -0.012627951 0.08603354
000150 29 59 42 3d 0d 5b 62 3d b4 6c 91 be d4 01 97 bc
       0.04744831 0.055262614 -0.28403246 -0.018433489
000160 99 3a 20 3d ea ff 2b 3e 47 b7 e1 bd 8c d5 a9 bd
       0.039118383 0.16796842 -0.110212855 -0.08292684
000170 bb 68 bb 3d 40 cf e5 3d 8d 7d 86 bd 44 78 28 bd
       0.09150835 0.112211704 -0.06566916 -0.04113032
000180 36 94 3d 3e 23 3d 43 3d cc 90 81 bd e0 c9 47 bc
       0.18513569 0.047665726 -0.06326446 -0.012194127

l2.weight f4 [100, 100]
000000 fb a1 18 3e 1a 65 49 3d 4e 89 3f 3d cc e1 05 bc
       0.1490554 0.049168684 0.046761803 -0.00817151
000010 c5 b6 3c 3e e0 0f 8e 3d 9c ff 09 bc e2 0c c1 bd
       0.18429096 0.06936622 -0.008422758 -0.09426285
000020 5d 56 5b 3e 9b 0f be 3c 7e c3 e2 3c c0 f5 a2 3e
       0.21419664 0.0232008 0.027681109 0.31828117
000030 11 55 15 3e 94 76 80 bb 6c 13 a1 3c 00 3f 45 3d
       0.14583232 -0.0039203856 0.019662581 0.048155785
000040 6b 51 f6 bd 28 02 2c 3d 3e 06 ca bd 33 7e bf bd
       -0.12027248 0.041994244 -0.09864472 -0.093502425
000050 3c 92 5b 3d ff 59 b2 3d c5 0e c0 3d c2 fa 28 bc
       0.053606257 0.08708572 0.09377817 -0.010313692
000060 06 7d 3d 3d 5c 2f c4 bd f1 e1 6b 3d 1e a0 52 3e
       0.04626181 -0.095793456 0.05758852 0.20568892
000070 32 cf 8d bd 8e 49 70 3b 41 7c a5 bb f9 02 06 be
       -0.06924285 0.0036664936 -0.0050502126 -0.13087071
000080 f9 96 aa bd ca d9 0a bd 77 49 f0 3c c0 82 93 bc
       -0.08329577 -0.033899106 0.029331906 -0.018006682
000090 04 52 02 bd e5 66 d9 3d 80 a5 fc bc fa 91 b2 bd
       -0.031816497 0.10615329 -0.030840635 -0.08719249
0000a0 4a 14 8d 3d 4d 8f 39 3e e5 d6 da bc 69 6f 96 bd
       0.068886355 0.18121071 -0.026713798 -0.073454686
0000b0 74 1c be 3b b0 e0 25 bd 95 2d 91 bd 68 3c a2 bc
       0.0058017317 -0.04049748 -0.07088772 -0.019804195
0000c0 47 da cb 3b d8 b5 a1 bd 28 dc 9c 3c de 4b 78 3d
       0.006221089 -0.07896012 0.019147947 0.060619228
0000d0 06 a0 18 be 1e 10 92 3d 2d 98 8c 3d 29 b9 4d be
       -0.14904794 0.0713198 0.06864963 -0.20090164
0000e0 db 58 c6 3d ca 61 01 be bd ad fe bd 16 a4 9a 3d
       0.096849166 -0.1263496 -0.12435482 0.07550828
0000f0 5f fa 9a be 23 60 f0 3d 36 e1 55 bd d6 8a 0b bd
       -0.30269143 0.117370866 -0.05221673 -0.03406795
000100 db 27 52 bd 9f eb 50 bd 42 4d f3 bd f6 f4 b4 3d
       -0.05130754 -0.051005956 -0.1187997 0.08835785
000110 df f8 14 3e 4b b4 cf 3d 2a 2d 30 3c 1c 97 d7 3b
       0.14548062 0.1014181 0.010752955 0.006579293
000120 da a6 9a 3d 63 72 43 be a2 9a 09 be 9e d6 5e be
       0.07551356 -0.19086604 -0.13437894 -0.21761557
000130 32 7b b7 3c ff d5 43 3e 5d 80 d6 3d 34 b4 3f bd
       0.022397611 0.19124602 0.10473702 -0.046802714
000140 97 45 33 3e 3b 5d df bd d7 7b 75 bd 16 9f c5 3d
       0.17507015 -0.10906454 -0.059932556 0.09649484
000150 94 60 bd 3a 2e 0e cd 3d cc 14 e1 3c a8 b6 be 3b
       0.0014448338 0.1001247 0.027475737 0.005820114
000160 72 35 c6 bc 1e 48 a2 bc 3a 16 51 be 29 8b ad 3c
       -0.024195407 -0.019809779 -0.20418635 0.02118452
000170 9c 99 33 bd 29 39 4d bd 31 0d 63 bd 9d ff 37 bd
       -0.043847665 -0.05010334 -0.055432502 -0.044921506
000180 8c 00 41 3d ae 52 5b 3d a9 ed 60 3d 30 48 22 3d
       0.047119662 0.053545646 0.05491415 0.039619625
000190 dc b8 13 be 44 02 6e 3d 66 af 92 be 6a 55 a9 bc
       -0.14425987 0.05810763 -0.28649443 -0.020670611
0001a0 44 37 00 3e 2c b9 36 bd 7d 1d a5 3d 15 76 53 be
       0.12521082 -0.044610187 0.08062265 -0.20650513
0001b0 2f 96 80 be c3 9d 10 3e 3e e3 da 3c dd 9c 09 3a
       -0.2511458 0.14122681 0.026719686 0.00052495097
0001c0 06 12 e1 3d c2 f6 26 3e df 8e 80 ba b0 06 39 3d
       0.10989766 0.16305068 -0.0009808204 0.045172393
0001d0 06 b3 55 b9 9d 29 df 3c 54 4e 4c 3e 2d 82 5a be
       -0.00020379954 0.027241522 0.19951755 -0.2133872
0001e0 0a 8e 5d bd 18 5a c2 3d 72 8f 82 bd 0b e5 de 3d
       -0.054090537 0.0948984 -0.06375016 0.1088353
0001f0 0b cf ad 3d 76 7a d9 3d 11 71 06 be 86 ae 60 3d
       0.08486756 0.10619061 -0.13129069 0.05485394
000200 70 9f b2 3d 01 69 d7 3c 61 6f 00 bd 03 d5 c4 bc
       0.087218165 0.026295187 -0.03135622 -0.024027353
000210 a3 ec 49 3e 79 dd de 3c c7 3c 04 3e 16 c2 c4 bd
       0.19719176 0.027205216 0.1291381 -0.096073315
000220 fe a2 06 3d 3a c5 07 3e e7 e8 b2 bd f3 a1 ac bd
       0.032870285 0.1325883 -0.08735829 -0.08429327
000230 91 d0 06 3e bb ff c4 bd e1 24 10 be c8 57 b8 3d
       0.131655 -0.09619089 -0.14076568 0.09001118
000240 c6 dc a2 3d 71 de 23 bd a1 f1 cd 3d 91 a8 15 3e
       0.079522654 -0.04000706 0.10055853 0.14615084
000250 7f 0d 5c bd 1c 6a 2b be 3a 5a 64 3e f7 82 ee 3d
       -0.05372381 -0.16739696 0.22300044 0.11646073
000260 ee 4d 17 3e 73 b3 ff 3c db 9e 46 3a 2e 61 b1 3e
       0.14775822 0.031213498 0.0007576772 0.34644455
000270 a3 1f 97 3d b8 2a e8 bd 94 ea 84 3d be de 82 bd
       0.07379081 -0.11336273 0.06490055 -0.06390141
000280 e9 7e e1 bd 91 d7 54 bb 3e ea 91 bd 77 72 a4 bb
       -0.11010534 -0.003247712 -0.07124756 -0.005018528
000290 f3 1a c3 bd 5e 72 ea bc 1e 39 10 3c 52 be 1c bd
       -0.095266245 -0.028618988 0.00880268 -0.03826744
0002a0 19 fb 84 3b 20 ff ab bd 42 ba 3f 3e 4f 29 6c 3a
       0.0040582535 -0.083982706 0.18723395 0.0009008841
0002b0 46 ad 6c 3d bd 94 cb bd 82 5f 82 3d de 63 bb bd
       0.057782434 -0.09940479 0.06365873 -0.091499075
0002c0 cc dc eb 3c 7e cb 08 3e 0b b9 f1 bb d9 1d 53 3c
       0.028791808 0.13358876 -0.007376795 0.012885534
0002d0 4e 8d 8f bb 24 0e b3 bd 0e ee bb bd 5f 0a 1d bd
       -0.0043808585 -0.087429315 -0.09176265 -0.03833997
0002e0 fa a2 11 be 67 61 b1 bb 81 f8 b2 3c da 0b af 3d
       -0.14222327 -0.0054132226 0.021847012 0.085471824
0002f0 5b 16 18 be ad f7 9e 3d b8 39 9c bd 4e ac 2c 3a
       -0.14852278 0.07762084 -0.076281965 0.00065869547
000300 03 21 60 3e 72 43 88 3d 2e 06 f6 bd 6a 3a 8f 3d
       0.21887593 0.06653489 -0.120128974 0.069935635
000310 14 55 33 3d 86 62 36 3e 1e 98 bf 3c 86 a9 ed 3d
       0.04378231 0.17811021 0.023387965 0.116046
000320 52 72 aa bd cf af 15 be eb 2f 52 bd 3f 35 af 3c
       -0.08322586 -0.14617847 -0.05131523 0.021387694
000330 a3 cc 0d bc 4d 9b 0f be 36 0a c7 3d cb c2 01 3d
       -0.008654746 -0.14024086 0.097187445 0.03167991
000340 14 77 f2 3c 0b f4 7c bd 17 b4 a2 3d 1c ca 1f 3e
       0.029597796 -0.061756175 0.07944506 0.15604442
000350 d9 3e 8c 3d 3a 77 d1 bc 20 1c ec bd e1 48 d9 3c
       0.06847925 -0.025569547 -0.11528802 0.02652401
000360 e5 f3 b4 bd 76 99 a4 bc ad 74 8b bd a7 96 da bc
       -0.08835582 -0.020092707 -0.068093635 -0.026683165
000370 f5 49 2d 3e 03 ce da bd 41 77 20 3e 3d 73 8a be
       0.16922744 -0.10683825 0.15670492 -0.27041045
000380 51 c2 25 3e 85 bc 9e bd b0 b0 34 be da a7 68 3d
       0.16187407 -0.07750801 -0.17645526 0.0568007
000390 9e b3 5d 3b 67 6e 2a 3e 5e cf e0 3c 97 f6 00 3d
       0.0033828984 0.16643678 0.02744263 0.031485166
0003a0 7c 43 f1 bd 2c ed ff bd f3 50 6a 3d 6d 74 35 bd
       -0.1178045 -0.12496409 0.057206105 -0.044300485
0003b0 b4 21 1a bd 82 4e 17 bd f4 12 1c bd 7c e2 c5 bc
       -0.037629798 -0.036940105 -0.038104013 -0.024155848
0003c0 28 ac 66 be 56 6a 20 3e a5 27 ac bd 2d a5 d3 3d
       -0.2252661 0.15665564 -0.08405999 0.10334239
0003d0 57 76 19 be 34 26 1e be db fe 0b be 3b 7b 6a 3d
       -0.1498655 -0.15444261 -0.13671438 0.057246428
0003e0 0c d4 5c 3e 47 93 8d ba 6f 7c 55 3e 89 ef 74 bd
       0.21565264 -0.0010801338 0.20848249 -0.05979875
0003f0 2b d9 09 bd ba a3 69 bd 63 9b d3 bc aa 3f e0 3c
       -0.033654373 -0.057040907 -0.02583093 0.027374107

l2.bias f4 [100]
000000 e3 b8 86 3c 9b 1c 0f bd 20 b6 0c be c2 9c 10 be
       0.016445583 -0.03493939 -0.1374135 -0.14122298
000010 ec 9a 00 3d cd 1b 09 be f2 53 ea 3d a7 59 e2 3d
       0.031397745 -0.13389511 0.114417925 0.11052256
000020 18 97 dd 3c 8e b7 b3 3d 6a 1e fe bd 18 76 ac 3d
       0.027049586 0.08775245 -0.12408145 0.08420962
000030 8e b7 69 be 30 d1 28 bc 7d 58 1c be f8 1e 49 3e
       -0.22823927 -0.01030378 -0.1526813 0.1964072
000040 ad e1 06 be 94 91 23 bd c8 32 5b 3d 52 1d 34 3d
       -0.13172026 -0.039933756 0.053515226 0.043973275
000050 fc 0e c2 3d 65 7e f3 3d 94 01 21 bd 9e 79 5d 3e
       0.09475514 0.11889342 -0.039308146 0.21628425
000060 2b d5 77 39 0a d6 11 3e 89 22 d7 3d c3 cf 1d 3e
       0.00023635167 0.14241806 0.10504634 0.15411286
000070 2f 4b fd 3d 3d b0 99 3e cf fb 31 bc 5a f8 e1 bc
       0.12367856 0.30017272 -0.0108632585 -0.027584244
000080 78 52 24 3e df f1 d0 bd 99 b8 22 3e b2 26 ce bc
       0.16047084 -0.10202383 0.15890731 -0.025164936
000090 f5 6e 22 3e e1 0a cd bc b3 e0 a0 bd e0 31 af 3d
       0.15862639 -0.025029602 -0.07855358 0.08554435
0000a0 c7 de 75 be f2 cf e6 3d 65 a2 02 3d 11 36 8f bd
       -0.24010764 0.11270131 0.031893153 -0.06992734
0000b0 63 06 8c 3e 0f e2 67 bd 91 f2 39 be bc 27 d4 bd
       0.27348623 -0.05661207 -0.18158938 -0.10359141
0000c0 f7 4d 0f bd 74 84 2a 3c e2 50 4f 3e e0 6e 73 bd
       -0.034986462 0.010407556 0.20245698 -0.05943191
0000d0 0c 61 ef bd cf 04 18 be 18 cd 3d be cc 25 b9 3d
       -0.11688432 -0.14845584 -0.18535268 0.09040412
0000e0 55 67 2d 3e 44 aa c3 bc 06 78 2a be ea a0 d2 3c
       0.1693395 -0.0238849 -0.16647348 0.025711495
0000f0 57 74 3f be 71 83 60 3e 00 f0 33 bc 11 e7 07 3d
       -0.18696724 0.21925141 -0.010982513 0.033179346
000100 f9 f6 8e bb 9c 62 6e 3c 9e 08 47 3e f6 bb 25 3e
       -0.0043629375 0.0145498775 0.19436881 0.16184983
000110 00 f8 91 bd e3 f4 21 be 81 df bd bd b4 a8 d7 bd
       -0.0712738 -0.15816073 -0.092711456 -0.105302244
000120 db 4c 96 3c 2c 97 46 3e 4d 20 9a be 67 ba 0c 3e
       0.018347194 0.19393605 -0.3010277 0.13742982
000130 3e 9e 67 be f1 e2 0f bd 5e 5d 08 be 0e e7 0b 3e
       -0.22618958 -0.035128538 -0.13316867 0.13662359
000140 39 88 c2 3d 36 75 87 3c f7 cd 99 3d 11 59 6a bc
       0.09498639 0.016535383 0.07509988 -0.014303462
000150 e5 36 30 3e 21 05 db bd 38 02 a3 bd 2f e2 f3 bd
       0.1720844 -0.10694338 -0.079594076 -0.119083755
000160 f3 59 0a 3c ae d8 03 3e 16 1e cb ba 0d be 92 be
       0.008444297 0.12875625 -0.0015496637 -0.28660622
000170 f8 c3 22 be 8f 29 b6 bd 45 4c 37 3d 99 04 07 bd
       -0.15895069 -0.088946454 0.04475047 -0.03296337
000180 14 6c c9 3d 00 5b 05 3e 39 bf d8 bd ae ee 81 3d
       0.098350674 0.13022995 -0.10583348 0.06344353

l3.weight f4 [18, 100]
000000 f1 dd 3d 3e 10 70 35 be 13 de 97 3e 66 c5 47 be
       0.18541695 -0.1771853 0.29661617 -0.19508895
000010 fb cc 8f 3c 53 96 73 3e 28 eb 1c 3e 5b a9 dd 3d
       0.017553797 0.23787813 0.1532408 0.108233176
000020 c8 15 d1 bd c8 bf ab bc 31 43 40 be 42 ba 06 3d
       -0.102092326 -0.020965472 -0.18775631 0.032892473
000030 dc bb e3 bd eb 34 3e bd 0e 3f 42 be 57 ee b6 bd
       -0.11119816 -0.046437185 -0.18969366 -0.089321785
000040 bc 30 b4 3d 6e e7 14 bd a2 01 04 be 3d db 7e 3d
       0.08798358 -0.03635352 -0.12891248 0.0622208
000050 29 b9 5d be 42 3a 14 3e 57 93 28 bc be 65 0b 3e
       -0.21652664 0.14475349 -0.010289035 0.1361303
000060 1e b0 38 bd c9 50 b0 bc ba 53 99 be 2d f5 1f be
       -0.045089833 -0.021522896 -0.2994669 -0.15620871
000070 a5 4c 8a bd c7 fc 9e 3d 09 fd 64 3e ed a9 37 be
       -0.067529 0.07763057 0.2236215 -0.17935915
000080 39 9b 48 3d 52 41 0b 3e 40 88 c5 bc d3 04 75 bd
       0.048976157 0.13599136 -0.02411282 -0.059819054
000090 88 8e bc 3d bf 88 fc bd 12 41 19 be e1 8d f5 bd
       0.09206873 -0.1233077 -0.14966229 -0.11989952
0000a0 67 92 18 3d de 69 80 3e dd cd 89 3d b6 e2 c3 3c
       0.037248995 0.2508077 0.067287184 0.023911815
0000b0 c7 2d 89 bc ad 71 0e bd f3 62 1d be 1d b2 08 bd
       -0.016745461 -0.03477638 -0.15369777 -0.033372987
0000c0 e1 87 85 bd 9e 09 54 be 72 e8 7d be 53 64 c0 3d
       -0.065200575 -0.20706794 -0.24795702 0.09394135
0000d0 76 10 04 3e 58 6e 82 3e 94 57 51 bd da 94 89 bd
       0.12896904 0.2547481 -0.05110891 -0.06717844
0000e0 71 1d 01 3e 1c c0 33 be 47 f8 74 3d 9f 6a a1 bd
       0.12608887 -0.17553753 0.05980709 -0.078816645
0000f0 36 a0 53 3e e7 2a 73 3e 62 59 28 bd c5 15 25 be
       0.20666584 0.23746835 -0.041100867 -0.16121586
000100 67 cf 84 be c8 4b c7 bd 85 98 78 3d 81 b2 82 3e
       -0.25939485 -0.09731251 0.06069233 0.25526813
000110 40 82 a7 bd 43 5e fd 3d c8 4d b5 bd 86 07 9e bc
       -0.0817914 0.123714946 -0.08852726 -0.019290697
000120 c5 9f 92 be 80 09 04 bc d4 f6 62 bd b8 7d 73 be
       -0.2863752 -0.008058906 -0.055411175 -0.23778427
000130 b2 c2 26 be 43 d4 ee 3d ce d6 34 3d ea f7 99 3c
       -0.16285208 0.116615795 0.044150166 0.018794972
000140 a8 e7 ce bd b5 4c 44 be 1c b7 0c 3e 53 4c 45 3e
       -0.10102779 -0.19169886 0.13741726 0.19267397
000150 86 f6 ad 3d 90 b2 6f 3d 23 86 03 3e 88 aa a1 be
       0.08494286 0.0585199 0.12844138 -0.31575418
000160 8c d9 1d 3c 92 be b8 3c 08 f5 47 be 72 46 da bd
       0.009634387 0.022551809 -0.19527066 -0.106579676
000170 1e 97 4e bd 0b 89 74 be d0 d9 66 3d a7 cb 60 3d
       -0.050437085 -0.23880403 0.056360066 0.054881718
000180 d7 38 04 3c 06 51 3b be 6c 2f 66 3d 1e 77 4d 3d
       0.008070192 -0.18292627 0.05619757 0.050162427
000190 3c d1 6d 3d a5 7c 92 be f0 b0 83 bd 4a 8c e8 bd
       0.05806087 -0.2861072 -0.064302325 -0.11354883
0001a0 66 ef eb 3d 5e 6a 18 3e dc a1 1a 3c 03 7d 17 be
       0.11520271 0.14884326 0.009438004 -0.14793782
0001b0 a8 93 fa 3c 1c ff bd 3d c2 87 48 3e 46 98 88 bb
       0.030587986 0.09277174 0.19583037 -0.004168543
0001c0 26 1c 54 bc c1 2b 24 bd 94 8e 91 bc 1b 19 35 bc
       -0.012946164 -0.04008079 -0.017768182 -0.011053349
0001d0 77 77 84 3a 51 c8 2e 3d 47 bf fc bd d0 a9 0c bd
       0.0010106404 0.042671505 -0.12341171 -0.034341633
0001e0 6b c7 bc 3d 83 b2 5a bd f3 e5 90 bd 9c 5e 0f be
       0.092177235 -0.0533929 -0.07075109 -0.14000934
0001f0 2a fc cf bd 64 97 94 3d 21 1f d3 bd c6 6b 4c bd
       -0.10155518 0.07255438 -0.10308672 -0.04990747
000200 97 48 07 3e b3 46 ab bd 7c 5c ae bc a7 eb f6 3d
       0.13211285 -0.08363094 -0.021284334 0.12056666
000210 23 95 d9 bc e3 f3 55 be 17 55 07 bd 75 50 5a bd
       -0.026560372 -0.20893817 -0.033040132 -0.053299386
000220 09 ac 5e bc 80 bb 9a 3d 7b 31 fb 3d b3 f7 9d be
       -0.013590821 0.07555294 0.12265297 -0.30853042
000230 1e 31 f5 3c 81 28 ac bc cf dc 8e bc 73 c2 30 be
       0.029930647 -0.021015408 -0.017439274 -0.17261676
000240 7e 2a 2c be 7e de 53 3e 4b d0 7a bd e6 7b de 3d
       -0.16813084 0.20690343 -0.0612338 0.108634755
000250 f3 1e ef bd 60 2d 8b be 20 ac 2d 3e 9f a2 da bc
       -0.11675825 -0.27183056 0.16960192 -0.026688872
000260 bc 7b d9 3d b2 87 b6 b8 7a 8d 0a be 8f 9f 0b 3e
       0.106193036 -8.7037115e-05 -0.13530532 0.13635086
000270 d9 93 b6 bb cc 21 33 3e c8 de 08 be c6 1f 79 bd
       -0.005571824 0.17493361 -0.13366234 -0.060821317
000280 0b 78 89 3d bf 70 6e bd 9f 37 6c 3d 21 a1 b7 3c
       0.067123495 -0.05821299 0.057670232 0.0224157
000290 41 4c 2d 3e 6c ae 02 be 71 05 83 3e 95 ec a0 bd
       0.1692362 -0.12761849 0.2559009 -0.078576244
0002a0 d4 9a 62 3e 4c 9e 79 be c9 72 e9 bd de c9 b4 be
       0.22129375 -0.24376792 -0.11398847 -0.35310262
0002b0 5b ad 91 3d 69 42 06 be 10 04 98 bd b8 72 aa bc
       0.07113143 -0.13111271 -0.0742265 -0.020806655
0002c0 9e cc 57 be 5b c9 0b 3e e3 29 79 be 19 47 83 bd
       -0.21074149 0.1365103 -0.24332385 -0.06410045
0002d0 45 57 4e 3c be fc 49 be 73 c0 53 3d 0d 2c 7a 3c
       0.012594049 -0.1972532 0.051697206 0.015269292
0002e0 95 d3 0a be 03 2b ae bd 31 bf 01 3d 8e 56 0e 3d
       -0.13557275 -0.085042976 0.031676475 0.034750514
0002f0 67 04 7c be 4b b9 87 3d ca fb 2c bc 9b 80 0c be
       -0.24611054 0.06627139 -0.010558078 -0.13720934
000300 66 94 0b be fd 05 19 3d 49 25 f7 3d 21 23 f5 bc
       -0.13630828 0.037359226 0.120676585 -0.029923977
000310 99 d3 b1 bc 6c 61 82 be 8a 21 1b be 77 fb 28 3e
       -0.021707343 -0.25464952 -0.15149513 0.16502176
000320 bf 1e 4a bd 89 5a e6 3d ee c4 ed 3b d2 08 ff 3c
       -0.049345728 0.11247737 0.007256142 0.031132136
000330 a3 cd 10 be 44 af 1f 3e 75 e0 8b bd 1e 56 4a 3e
       -0.14140944 0.15594202 -0.06829921 0.19759414
000340 73 b1 2f 3c f8 59 18 bc 2a 51 1c be 49 30 2c 3c
       0.01072346 -0.009298794 -0.15265337 0.010509559
000350 26 b4 08 bc 51 cf 90 bc 5c cd 7e bd f2 a2 68 be
       -0.008343732 -0.017676981 -0.062207565 -0.22718409
000360 47 f9 a4 bc ce 27 71 be f4 df 3b 3e 43 59 6b 3e
       -0.020138396 -0.2355034 0.1834715 0.2298327
000370 b4 60 29 be 37 de 92 3c fc fd a4 3e 07 e4 98 3d
       -0.16540796 0.017928226 0.32225025 0.07465368
000380 2a a0 89 bd 74 99 a7 bd 55 6d b7 3d f8 b6 4c 3e
       -0.06720002 -0.08183566 0.089564 0.19991672
000390 b7 c5 2f 3c de 92 be 3d 6b 5a d6 bc 19 97 dc bd
       0.010728291 0.093053564 -0.026166162 -0.10771007
0003a0 cc a4 d7 bc 14 f6 0d 3e 1f e4 50 3d fe b5 b2 bd
       -0.026323698 0.13863403 0.050998803 -0.087261185
0003b0 26 66 52 3e 72 98 dd 3c e8 0e f0 3d b5 9a 21 be
       0.20546779 0.02705023 0.11721593 -0.15781672
0003c0 91 74 43 be 82 58 f9 3d bf 3c a2 be 1c a0 6a 3e
       -0.19087435 0.12175085 -0.3168697 0.2291264
0003d0 f2 83 29 3c a6 d2 b4 bc 99 55 01 3e 65 f2 a6 bd
       0.0103464 -0.022073101 0.12630309 -0.08151702
0003e0 04 e3 b2 3d e6 f0 68 bd f0 2c 6f be 7c e5 4b 3d
       0.08734706 -0.056870364 -0.23356986 0.0497794
0003f0 87 ee a1 3d 2c 03 1e 3d 8d 50 b8 3d 6a 52 12 be
       0.079068236 0.038577244 0.08999739 -0.14289251

l3.bias f4 [18]
000000 32 7a 43 3d 64 51 52 3f 14 76 35 be 89 11 d7 3e
       0.047723956 0.8215544 -0.17720824 0.42005566
000010 90 42 a8 be e4 6c 5d be 78 cd 7d 3f 85 ae 51 bd
       -0.32863283 -0.2162357 0.99141645 -0.051191825
000020 f7 15 2a 3d a0 f6 3a be ad 74 8d bd 30 e1 1f be
       0.041524854 -0.18258142 -0.0690702 -0.15613246
000030 e9 dc 80 be 2f 33 41 be 35 c2 31 bf 6e 3e 7d 3e
       -0.2516854 -0.18867181 -0.6943696 0.24730846
000040 ee 9a 66 be 8d d8 51 bf
       -0.22520038 -0.81971055
