LARA/data/result/g_10.pt (torch, 87349 bytes, 7 tensors)

embedding.weight f4 [36, 5]
0	0x3df82854	0.12117067
1	0xbe8978f3	-0.2685009
2	0xbdeefcd3	-0.11669316
3	0xbee7782e	-0.45208877
4	0x3e17849a	0.14796677
5	0xbcc6759f	-0.024226008
6	0x3ea48b4d	0.32137528
7	0xbe197146	-0.14984617
8	0x3e89387f	0.26800916
9	0x3d7d811d	0.06189071
10	0xbe9e93d4	-0.3097216
11	0xbd91a916	-0.07112329
12	0xbe3edd27	-0.1863905
13	0xbdecf46c	-0.11570057
14	0x3e5ed127	0.21759473
15	0x3eaf5574	0.34244883
16	0x3ee1b157	0.44080612
17	0x3eb2c1d3	0.349135
18	0x3ddd69b2	0.108111754
19	0x3c6ba028	0.014381446
20	0xbedd59ad	-0.4323248
21	0xbd4d6480	-0.050144672
22	0x3daf7448	0.08567101
23	0xbdbf07aa	-0.09327634
24	0x3ebfa4fa	0.37430555
25	0xbf105d19	-0.56392056
26	0x3e2f9a10	0.17148614
27	0xbe87ba1e	-0.26509184
28	0x3e97efc2	0.29675108
29	0xbd7a23f0	-0.06106943
30	0x3d395633	0.04524822
31	0xbce30de8	-0.027716592
32	0xbe1196c6	-0.14217672
33	0x3e2ab1c0	0.16669369
34	0xbddc2bea	-0.107505634
35	0x3c79f583	0.015256288
36	0xbe026713	-0.12734632
37	0xbdfc9139	-0.123323865
38	0x3d2c970f	0.04213625
39	0x3deefbd5	0.11669127
40	0x3e2148de	0.15750453
41	0xbdd60468	-0.10450059
42	0xbcdc4261	-0.02688712
43	0x3df2e9a0	0.11860967
44	0xbe241aca	-0.16025844
45	0x3e50beb6	0.2038525
46	0x3c1cf127	0.00957898
47	0x3e5852e7	0.21125375
48	0x3dde09fc	0.10841748
49	0xbec9c04b	-0.3940452
50	0x3d50c08f	0.05096489
51	0x3efcae43	0.493517
52	0xbe3e0b40	-0.18558979
53	0xbe94eafd	-0.29085532
54	0x3d914ddc	0.070949286
55	0xbe38297c	-0.17984575
56	0x3e16700e	0.14691183
57	0xbdc26f07	-0.09493833
58	0xbd0ab2c7	-0.0338619
59	0x3e8b2a44	0.27180684
60	0xbe5b598a	-0.21420875
61	0x3e3049ec	0.17215699
62	0xbee0501a	-0.43811113
63	0xbe1a7ef7	-0.15087496
64	0xbe307639	-0.17232598
65	0xbe889b88	-0.2668116
66	0xbd127054	-0.035751656
67	0xbda5bcbb	-0.08092638
68	0x3e59de5a	0.21276227
69	0x3e824aea	0.2544778
70	0x3ca03bdb	0.019559791
71	0xbe6f889e	-0.23391959
72	0x3e801a41	0.2502003
73	0x3e01bde2	0.12670091
74	0xbd484d0c	-0.048901603
75	0x3e5f5b93	0.21812277
76	0xbef27500	-0.4735489
77	0x3e4b26bd	0.19838996
78	0xbe3708d6	-0.17874464
79	0xbe35caab	-0.17753093
80	0x3dd606d8	0.10450524
81	0x3ebc7d5a	0.36814386
82	0xbd44ed5e	-0.048077933
83	0xbe625f01	-0.22106554
84	0xbe36848a	-0.17823997
85	0x3d2a6f49	0.041610036
86	0xbe6a485f	-0.2287917
87	0x3ec7bd4e	0.39011616
88	0xbd4070f2	-0.046982713
89	0xbeae0017	-0.33984444
90	0xbe25b357	-0.16181694
91	0xbde35eb7	-0.1110205
92	0xbe253bfb	-0.16136162
93	0xbdfa9b39	-0.122366376
94	0x3d9083d0	0.07056391
95	0xbda41134	-0.08011094
96	0xbdae52e5	-0.085119046
97	0xbc4cd396	-0.012501618
98	0x3e650b36	0.22367558
99	0x3cc46038	0.023971662
100	0x3e4f5da6	0.20250568
101	0x3dfc3f39	0.12316746
102	0x3ebf31a9	0.37342575
103	0xbebf873f	-0.37407872
104	0x3d74a027	0.059723046
105	0xbe0f0683	-0.13967328
106	0x3d131c4d	0.03591566
107	0x3e447c1e	0.19187972
108	0xbe040dbd	-0.12895866
109	0xbe195e36	-0.14977345
110	0x3d8238bf	0.0635848
111	0xbdf91b62	-0.12163426
112	0x3e4b09dd	0.19827981
113	0xbe79b11d	-0.2438397
114	0x3e14b41e	0.14521834
115	0x3eb41571	0.35172608
116	0x3da09078	0.07840055
117	0x3e4cfe13	0.20018797
118	0xbecc2af2	-0.39876515
119	0x3f3c1304	0.73466516
120	0x3d35a9bc	0.044351324
121	0xbcd4ee74	-0.02599261
122	0x3cb6db10	0.022321254
123	0xbe37da1e	-0.17954299
124	0xbcce889a	-0.025211621
125	0xbd94d1af	-0.072665565
126	0xbdbdb4e2	-0.09263016
127	0x3e6b3ed6	0.22973189
128	0x3e46597c	0.19370073
129	0x3b8b5b00	0.0042527914
130	0xbd7bd5ac	-0.06148307
131	0x3eb1dcf1	0.34738877
132	0xbe0cde9a	-0.13756791
133	0xbea1d4ca	-0.31607658
134	0x3e7a9fc4	0.24475008
135	0x3e91c964	0.2847396
136	0xbe2df239	-0.16986932
137	0xbdf43ef0	-0.11926067
138	0x3e85afe3	0.26110753
139	0xbe3613fc	-0.17781061
140	0xbe947dc0	-0.2900219
141	0xbe2e0ea6	-0.16997775
142	0x3e472966	0.19449386
143	0xbd31e875	-0.04343458
144	0x3e837fd4	0.25683463
145	0xbe207ee2	-0.15673402
146	0x3d6113eb	0.054950636
147	0xbdc9f2d9	-0.09860773
148	0x3dcab9fe	0.098987564
149	0x3e591cf8	0.21202457
150	0x3d36a5a4	0.04459156
151	0xbd685344	-0.056720033
152	0x3d9874f2	0.074441805
153	0x3e53d23d	0.20685668
154	0xbd9764f8	-0.07392305
155	0xbe90f1b6	-0.2830941
156	0xbe6df84a	-0.23239246
157	0xbeba3084	-0.3636514
158	0x3ea1f842	0.31634718
159	0x3e9ed373	0.31020698
160	0xbd2fe565	-0.042943377
161	0x3e2438f1	0.16037346
162	0x3dddb93b	0.108263455
163	0x3e6bbfba	0.23022357
164	0xbe4b576d	-0.19857569
165	0xbe4b0846	-0.19827375
166	0x3cadfbc2	0.021238212
167	0x3dbbf0e3	0.09176805
168	0xbeae9e81	-0.34105304
169	0xbd2d3714	-0.042288855
170	0xbe8e4ad1	-0.27791455
171	0xbe241e6b	-0.16027229
172	0xbd046c32	-0.032329746
173	0x3c9d6bc3	0.019216424
174	0xbee9553b	-0.45572838
175	0x3eded1f6	0.43519562
176	0xbcd7fe9b	-0.026366523
177	0xbe434a5b	-0.19071333
178	0xbe19431d	-0.14967008
179	0x3eec9b12	0.4621206

l1.weight f4 [100, 90]
0	0xb9a0cdb2	-0.00030670833
1	0x3e142289	0.14466299
2	0xbe06442a	-0.1311194
3	0x3d6b2e77	0.05741736
4	0x3da1241f	0.07868218
5	0xbda554e7	-0.080728345
6	0xbd54f522	-0.05199159
7	0x3e16fd7f	0.14745139
8	0x3e1c8e49	0.15288652
9	0xbbc87916	-0.00611795
10	0x3d957c98	0.07299155
11	0xbcb1869a	-0.021670628
12	0xbdaaf0ff	-0.083467476
13	0x3dc7ca65	0.097554006
14	0x3d3912ae	0.04518383
15	0x3dd5539a	0.10416336
16	0xbc244a17	-0.01002743
17	0xbe1d8537	-0.15382849
18	0xbe048e7b	-0.12944977
19	0x3d2ada96	0.041712366
20	0xbe15bd67	-0.14623033
21	0x3cdadc52	0.026716385
22	0xbe33d8fd	-0.17563243
23	0x3d8ba7df	0.06819128
24	0x3c8805fa	0.016604412
25	0x3d695b91	0.05697209
26	0x3c03ff67	0.008056498
27	0x3c816dd9	0.01579945
28	0x3e88e1ef	0.26734874
29	0xbb874cdc	-0.0041290354
30	0x3d23d4fa	0.039998032
31	0x3b5b2eb1	0.0033444578
32	0xbe33ab2e	-0.17545769
33	0x3e5dfbfd	0.21678157
34	0xbcd16640	-0.025561452
35	0xbd992381	-0.07477475
36	0xbd971117	-0.073763065
37	0x3d9a1bd0	0.07524836
38	0x3ddfb88f	0.10923874
39	0x3e5738c6	0.21017751
40	0x3d89f8e7	0.067369275
41	0xbd9b314f	-0.07577764
42	0x3d3b6b74	0.045756772
43	0xbdfc7110	-0.123262525
44	0x3e24560a	0.16048446
45	0x3c11c16d	0.008896214
46	0x3dd17ae3	0.10228517
47	0x3bad8516	0.005295406
48	0x3d5ca451	0.05386764
49	0xbd2315fe	-0.039815895
50	0x3e58bfdc	0.21166939
51	0xbdbd7e9c	-0.092526644
52	0x3e14268b	0.14467828
53	0xbd1008bd	-0.035164583
54	0xbe090c4f	-0.13383602
55	0x3e355784	0.17709166
56	0x3c1675e2	0.009183379
57	0x3dc501d2	0.09619488
58	0x3bca275d	0.0061692433
59	0xbd2ea2e2	-0.042635806
60	0x3d83fd00	0.0644474
61	0x3dfe66a8	0.12421924
62	0xbe706982	-0.23477748
63	0x3d9a719b	0.075412
64	0x3dd682ab	0.10474142
65	0xbbfa6cdb	-0.007642371
66	0xbe0abbe6	-0.1354824
67	0x3dae8964	0.08522299
68	0x3dad5aa8	0.08464557
69	0x3ccb8de8	0.02484794
70	0xbe5db114	-0.21649581
71	0xbd4f8b06	-0.050669692
72	0xbdfa4883	-0.12220862
73	0x3cc16a26	0.023610186
74	0xbe8135ee	-0.25236458
75	0x3dd6f16f	0.104952686
76	0x3d177f5c	0.036986694
77	0xbe1b6858	-0.15176523
78	0x3e06d018	0.13165319
79	0x3a9293c4	0.0011182954
80	0x3dc260c4	0.09491113
81	0xbe2d45d3	-0.16921167
82	0xbce46eba	-0.02788483
83	0x3d71e2da	0.059054233
84	0x3e107c2e	0.14109871
85	0x3df2ede1	0.11861778
86	0x3d1a1e06	0.03762629
87	0x3da86b9b	0.08223649
88	0x3e3df7d3	0.18551569
89	0x3d90b6e9	0.07066137
90	0xbe0ddc40	-0.1385355
91	0xbe19ce86	-0.15020189
92	0x3e153132	0.14569548
93	0xbd7efd2a	-0.062253155
94	0xbcf239ca	-0.029568572
95	0x3ce927e2	0.0284614
96	0xbd3d89fc	-0.04627417
97	0x3dc31dc5	0.095271625
98	0xbdf687ab	-0.12037595
99	0xbb6c6d6d	-0.0036075965
100	0x3db1af7c	0.08676049
101	0xbd8bddce	-0.06829415
102	0x3d53b7d9	0.051689003
103	0xbd245bb0	-0.040126503
104	0xbd657f8d	-0.056029845
105	0x3d46e021	0.04855359
106	0x3dce3edf	0.100705855
107	0xbc7b2f3c	-0.015331086
108	0xbdb25856	-0.08708255
109	0xbbb85e21	-0.0056264554
110	0x3e5f142f	0.21785043
111	0x3e653e6c	0.22387093
112	0x3d9c241e	0.07624076
113	0xbd5035a4	-0.050832406
114	0x3d7e01d0	0.062013447
115	0x3d734ea5	0.059401173
116	0xbddefdbe	-0.10888241
117	0x3e32b236	0.17450795
118	0xbc669d07	-0.014075524
119	0x3db80098	0.08984488
120	0xbc04f80f	-0.008115782
121	0xbd9a8e75	-0.07546703
122	0x3d3469bc	0.04404615
123	0xbe54b2e5	-0.20771368
124	0x3db79134	0.08963242
125	0xbc65e7e7	-0.014032341
126	0x3dbe95da	0.09305926
127	0x3dfef955	0.124499
128	0xbe21f52e	-0.15816185
129	0xbda3f170	-0.08005035
130	0xbd1b8bcf	-0.03797513
131	0x3d0e2f4e	0.034713082
132	0x3e1bfa17	0.1523212
133	0xbdf95115	-0.12173668
134	0xbc8d312a	-0.017235357
135	0xbd2da078	-0.042389363
136	0xbe1e0efb	-0.15435402
137	0x3d838345	0.06421522
138	0xbd097ef1	-0.033568326
139	0x3ba8d6da	0.0051525654
140	0xbd899fb4	-0.06719914
141	0xbdf33a36	-0.11876337
142	0xbd8b2e11	-0.06795896
143	0xbdabba4c	-0.08385143
144	0xbe1d25a9	-0.15346397
145	0xbcc624a7	-0.0241874
146	0x3c0c93fe	0.008580206
147	0xbddeea76	-0.108845636
148	0xbe37b4a4	-0.17940003
149	0xbdab707d	-0.08371065
150	0x3d1af436	0.037830554
151	0xbda53067	-0.08065873
152	0x3d5281c4	0.051393285
153	0x3e487f46	0.19579801
154	0x3d34c648	0.04413441
155	0xbdef6ac4	-0.11690286
156	0xbc1c07ed	-0.009523374
157	0x3d788a38	0.06067869
158	0x3d25edd0	0.04051
159	0xbc6a68ae	-0.014307184
160	0x3d0d42ec	0.03448765
161	0x3dce8950	0.10084784
162	0xbd5ef77e	-0.054435246
163	0x3d36f655	0.044668514
164	0x3ca4f4ea	0.020136315
165	0x3df8cc64	0.121483594
166	0xbded0399	-0.11572952
167	0x3d8679cc	0.065662
168	0x3e8270b6	0.25476617
169	0xbc8276b8	-0.01592575
170	0x3dc9cddc	0.09853718
171	0xbdd9ebc5	-0.106406726
172	0x3dc28d9c	0.09499666
173	0xbd32873b	-0.043585997
174	0x3d1a139d	0.03761636
175	0xbdc6392f	-0.09678876
176	0x3cabfa19	0.02099328
177	0x3df475d3	0.11936536
178	0x3ba4ff48	0.0050353147
179	0x3d14871f	0.036261674
180	0x3c47bb7a	0.012190694
181	0xbd807381	-0.062720306
182	0x3d709129	0.058732186
183	0xbd7388c4	-0.0594566
184	0xbcc8a465	-0.024492452
185	0x3d75af80	0.059981823
186	0x3db34327	0.08753043
187	0xbe09beae	-0.13451645
188	0x3e022653	0.12709932
189	0x3dd21700	0.10258293
190	0xbd5d3933	-0.054009628
191	0xbe1b3b69	-0.15159382
192	0xbd1aff8d	-0.03784137
193	0x3ccf945f	0.025339304
194	0xbd9ebf9d	-0.07751391
195	0x3be9c160	0.007133648
196	0x3d868890	0.06569016
197	0xbddd2fcc	-0.10800132
198	0xbdb0322a	-0.08603318
199	0xbd9cecae	-0.076623306
200	0xbd4acfb0	-0.049514472
201	0xbc96c447	-0.01840414
202	0xbddf8764	-0.109144956
203	0xbc619c6e	-0.013770206
204	0xba891fb8	-0.0010461723
205	0x3d9c56e7	0.07633763
206	0xbdfc518c	-0.12320241
207	0x3dbd1715	0.09232918
208	0xbbf3ff27	-0.007446188
209	0xbdc81d14	-0.09771171
210	0x3c0a15b9	0.008428031
211	0x3cb4b508	0.022058979
212	0x3e0980d2	0.13428047
213	0x3ddb73f2	0.10715474
214	0xbc1a713c	-0.009426411
215	0x3de459b6	0.111499235
216	0xbdc8eef3	-0.09811201
217	0x3dd6139f	0.10452961
218	0x3dafa144	0.08575681
219	0xbd4e8744	-0.050421968
220	0x3d9549a0	0.072894335
221	0xbdad4ed3	-0.084623
222	0xbd32a400	-0.043613434
223	0xbc954e76	-0.01822589
224	0x3dd400dc	0.103517264
225	0x3e173f77	0.14770304
226	0x3dc4b8a3	0.09605529
227	0x3dd9b868	0.10630876
228	0x3bb801a6	0.005615431
229	0xbd19b700	-0.037528038
230	0x3dc28f14	0.09499946
231	0xbcdf80bc	-0.027283065
232	0x3a1b6063	0.00059271435
233	0x3daffe33	0.085934065
234	0x3e126528	0.142964
235	0x3d4f168d	0.050558615
236	0xbd9296a1	-0.071576364
237	0xbb1684f8	-0.002296744
238	0x3e304f4f	0.17217754
239	0xbdcce831	-0.100052245
240	0xbd82aa47	-0.06380134
241	0xbd17b802	-0.037040718
242	0xbdcff5df	-0.10154318
243	0xbc33d3e9	-0.010975816
244	0xbd35f3b4	-0.044421867
245	0x3cdb1ae8	0.026746228
246	0x3e72e9b3	0.23721962
247	0x3e464858	0.19363534
248	0xbd0e60cd	-0.034760285
249	0xbd7eb63e	-0.06218552
250	0xbcea644e	-0.028612282
251	0x3c4a2f14	0.012340326
252	0x3e59fe51	0.2128842
253	0xbd65aa4a	-0.056070603
254	0xbdd76f0f	-0.105192296
255	0x3dad6a4c	0.0846754

l1.bias f4 [100]
0	0x3dabf835	0.08396951
1	0xbe575759	-0.21029414
2	0x3d909e38	0.07061428
3	0x3e9607a7	0.29302713
4	0x3e012f39	0.1261567
5	0xbd808881	-0.06276036
6	0x3cd0e23f	0.025498508
7	0x3e19d3f7	0.15022264
8	0xbcf8a6d7	-0.030352993
9	0x3e3dc9dd	0.18534036
10	0x3d60213b	0.05471919
11	0x3d5b5f2e	0.053557567
12	0x3dca825e	0.09888147
13	0x3d6a8a0a	0.05726055
14	0xbe362be1	-0.17790176
15	0x3d5d2113	0.05398662
16	0xbc97dcea	-0.018537957
17	0x3e13a767	0.14419328
18	0xbde15ff4	-0.1100463
19	0x3e109912	0.14120892
20	0xbe51b81c	-0.20480388
21	0x3c7f8d3f	0.015597641
22	0xbd6691e2	-0.05629147
23	0xbcf90271	-0.030396672
24	0x3e38fadb	0.18064444
25	0xbdd61872	-0.10453881
26	0xbe833c04	-0.25631726
27	0xbcfa2918	-0.030537173
28	0x3e5fae5d	0.21843858
29	0xbd15d789	-0.036582503
30	0x3cde5bb4	0.027143337
31	0xbd01a089	-0.03164724
32	0x3e4b0381	0.19825555
33	0x3e166d7f	0.14690207
34	0xbd9ce928	-0.076616585
35	0xbe108b75	-0.14115699
36	0xbe618856	-0.22024664
37	0x3d93b8a0	0.07212949
38	0xbdb105d1	-0.086436875
39	0x3ddeb929	0.1087516
40	0x3c41a495	0.011819025
41	0xbe603414	-0.21894866
42	0xbe225f14	-0.15856582
43	0xbca1fd7d	-0.019774193
44	0xbd5afff0	-0.053466737
45	0xbdd6b723	-0.10484149
46	0xbd8f4c3e	-0.06996964
47	0x3e9c768d	0.30559197
48	0xbe68fbef	-0.22752355
49	0x3a8b6ef9	0.0010637931
50	0x3d8f6527	0.07001715
51	0x3e118f54	0.14214832
52	0x3d046c0c	0.032329604
53	0xbde9ae7f	-0.114102356
54	0xbdf3e11d	-0.11908171
55	0x3e60f01d	0.21966596
56	0x3e1ad834	0.15121537
57	0x3e6049ed	0.219032
58	0x3e83f723	0.25774488
59	0x3d1fd780	0.039023876
60	0x3d0438c8	0.032280713
61	0x3def4280	0.11682606
62	0x3d5bac11	0.053630892
63	0x3e113c90	0.14183259
64	0xbd96b7f5	-0.07359306
65	0x3e126deb	0.14299743
66	0x3d4cf62d	0.05003946
67	0xbe04e7de	-0.12979075
68	0xbb8d19e2	-0.004306064
69	0xbdb23ba5	-0.087027825
70	0x3d9b4aa1	0.07582594
71	0xbe2639f8	-0.16233051
72	0xb97ab5c9	-0.00023909578
73	0xbdd7e9ea	-0.105426624
74	0x3da4ecc8	0.08052975
75	0x3cd7e421	0.026353898
76	0x3c8dbe8f	0.01730278
77	0xbedcbea1	-0.43114188
78	0xbea4099c	-0.3203858
79	0x3d48df5d	0.04904114
80	0xbe8bac6f	-0.27279994
81	0x3dad0cf7	0.084497385
82	0xbc2873e5	-0.010281538
83	0x3d8a0061	0.067383535
84	0x3c83ccea	0.016088922
85	0x3d9d2f0a	0.076749876
86	0xbe857098	-0.26062465
87	0xbcc1adda	-0.02364247
88	0x3d25f422	0.040516026
89	0x3e307e80	0.17235756
90	0xbe0abd8d	-0.1354887
91	0xbdb47a19	-0.08812351
92	0x3db9cdc7	0.09072452
93	0x3e0677cf	0.13131641
94	0xbd35c85d	-0.044380534
95	0xbb4b0367	-0.003097737
96	0x3e10a77f	0.14126395
97	0x3cb902fd	0.022584433
98	0xbd717126	-0.058945797
99	0x3ba51755	0.005038182

l2.weight f4 [100, 100]
0	0x3dc2ce9a	0.09512062
1	0x3ce27a1f	0.027646123
2	0xbbab0fa3	-0.00522037
3	0xbc8f2399	-0.017473029
4	0x3de46bca	0.11153372
5	0x3e0a35f1	0.1349714
6	0x3ce9413b	0.028473487
7	0xbdc5969c	-0.09647867
8	0x3e7411f3	0.23834972
9	0x3ba11ba4	0.004916625
10	0xbc8350ed	-0.0160298
11	0x3e9c3059	0.30505636
12	0x3e32760f	0.17427848
13	0xbd751377	-0.059833016
14	0x3d3e1ba5	0.046413083
15	0x3cb72593	0.022356784
16	0xbe29eec3	-0.16594987
17	0xbc1a3c4b	-0.009413789
18	0xbe12e150	-0.14343762
19	0xbd68987b	-0.05678604
20	0x3d90742d	0.07053409
21	0x3dd2e8e2	0.10298325
22	0x3dda2c6b	0.10653003
23	0x3c3ea2bf	0.011635481
24	0x3cc0234c	0.02345433
25	0xbd8441ed	-0.06457887
26	0x3dd66ed3	0.10470357
27	0x3e6a5c9f	0.22886895
28	0xbdbe8e41	-0.093044765
29	0x3cb8df14	0.02256731
30	0x39b132c2	0.00033797888
31	0xbe0fc4fc	-0.14039987
32	0xbdb8dd3f	-0.09026574
33	0x3ca3eceb	0.020010432
34	0x3d13c251	0.036073986
35	0x3b804130	0.003914021
36	0xbd4135c7	-0.047170427
37	0x3d92f139	0.07174916
38	0x3b8e6596	0.004345606
39	0xbdf1ca18	-0.118061244
40	0x3db42602	0.08796312
41	0x3e049c56	0.12950262
42	0xbc94196c	-0.018078528
43	0xbde9bef6	-0.11413376
44	0xbd0b69c7	-0.034036424
45	0xbdb4c0fd	-0.08825872
46	0xbd9be9a2	-0.07612921
47	0xbd17332c	-0.036914036
48	0xbc543ef1	-0.0129544595
49	0xbdcdd83d	-0.1005101
50	0x3d04283a	0.032264926
51	0x3d1ab78c	0.0377727
52	0xbdba664a	-0.09101541
53	0x3cf82e92	0.030295644
54	0x3d8e2048	0.06939751
55	0xbe2b01fe	-0.16699979
56	0x3d3d8091	0.04626519
57	0xbe02db19	-0.12778892
58	0xbdf058dc	-0.117356986
59	0x3d91a5a8	0.071116745
60	0xbe746cba	-0.23869601
61	0x3e19fefb	0.15038674
62	0xbd3d44d5	-0.04620822
63	0xbd178325	-0.036990304
64	0xbd930ee6	-0.07180576
65	0xbc385a4d	-0.011251998
66	0xbd950636	-0.07276575
67	0x3dad50ac	0.084626526
68	0x3dc94e4a	0.098293856
69	0x3dbee3af	0.09320771
70	0xbc376e2c	-0.011195701
71	0x3a85304d	0.001016149
72	0x3d89ac96	0.06722371
73	0xbe08b4dd	-0.13350244
74	0xbe0cfc58	-0.13768137
75	0xbe2c9c76	-0.1685656
76	0x3b8521ae	0.004062853
77	0x3e63ae2f	0.22234415
78	0x3ddfac17	0.109214954
79	0xbc09c820	-0.00840953
80	0x3e257216	0.16156802
81	0xbd4ca0f2	-0.049958177
82	0xbd42679f	-0.047462102
83	0x3d21b60a	0.039480247
84	0xb9f5e598	-0.00046901102
85	0x3d8f7dc8	0.07006413
86	0x3d299e2a	0.041410603
87	0x3c67dc5c	0.014151659
88	0xbd010a5c	-0.03150402
89	0xbd0268da	-0.031838275
90	0xbe7a279e	-0.24429175
91	0x3d579eb2	0.052641578
92	0xbdb74809	-0.089492865
93	0xbd8c5351	-0.06851829
94	0xbc82ce9e	-0.015967663
95	0xbd493baf	-0.049129184
96	0xbbb1d600	-0.005427122
97	0x3d7c04cf	0.061528023
98	0x3cfe3b09	0.03103401
99	0x3d0929e1	0.033487204
100	0xbe0ecfc6	-0.13946447
101	0x3da31483	0.07962897
102	0xbe9fb133	-0.3118988
103	0x3c9faccc	0.019491576
104	0x3de24321	0.1104796
105	0xbc3a103a	-0.011356408
106	0x3d98dcd3	0.07463994
107	0xbe61e8a1	-0.22061397
108	0xbe77732b	-0.24165027
109	0x3e0bcafe	0.13651654
110	0xbbf27188	-0.007398788
111	0x3d2e1962	0.042504676
112	0x3d8d02ae	0.06885277
113	0x3e0cdb12	0.13755444
114	0x3d0c1c68	0.034206778
115	0x3d85db43	0.065359615
116	0xbc97911d	-0.018501813
117	0x3d1bb432	0.038013645
118	0x3e80c865	0.2515289
119	0xbe2c704a	-0.1683971
120	0xbd4259fb	-0.047449093
121	0x3db64de2	0.08901574
122	0xbd605fa4	-0.05477871
123	0x3e1447ed	0.14480563
124	0x3da1a4fd	0.07892797
125	0x3dcea6a9	0.10090382
126	0xbd57b509	-0.052662883
127	0x3d7ff5bd	0.062490214
128	0x3d9d8cf1	0.07692898
129	0x3b698bbb	0.0035636264
130	0xbb42fe3c	-0.0029753586
131	0xbc4020d0	-0.011726573
132	0x3e5005f1	0.20314766
133	0x3c9eb052	0.019371185
134	0x3e398d75	0.18120368
135	0xbd768427	-0.060184624
136	0x3ceb6d0a	0.028738517
137	0x3defa88e	0.11702071
138	0xbdf8e03d	-0.12152145
139	0xbdfe1b7a	-0.124075845
140	0x3e1f7dd1	0.15575339
141	0xbdd2a4c7	-0.10285335
142	0xbe232a42	-0.15934089
143	0x3de38777	0.11109822
144	0x3d8c7398	0.06857985
145	0xbdbca0b0	-0.09210336
146	0x3e105c9f	0.14097832
147	0x3e043803	0.12911992
148	0xbc7769b7	-0.015100888
149	0xbe2bdb8e	-0.16782972
150	0x3e91f279	0.28505304
151	0x3df2f1a3	0.11862495
152	0x3e4ecef8	0.2019614
153	0x3d4c9365	0.049945254
154	0x3aa44ebc	0.0012535672
155	0x3eaef04b	0.34167704
156	0x3b10f653	0.0022119477
157	0xbe0c46d6	-0.13698897
158	0x3dac2498	0.08405417
159	0x3b552cb8	0.0032527875
160	0xbe0dc8f2	-0.13846186
161	0x3d2ebf0a	0.042662658
162	0xbdc478ed	-0.09593377
163	0xbcfca960	-0.030842483
164	0xbd91e720	-0.07124162
165	0xbd86fe30	-0.06591451
166	0xbb199796	-0.00234363
167	0x3b3a3fb2	0.0028419313
168	0xbc64bba4	-0.013960753
169	0xbd81609e	-0.063172564
170	0x3e2d73c5	0.16938694
171	0x3cf6bb81	0.030118706
172	0x3d965066	0.073395535
173	0xbd35c1f8	-0.044374436
174	0x3d2ca611	0.04215056
175	0xbd59afdf	-0.05314624
176	0x3cbb4228	0.022858694
177	0x3e35fc0c	0.1777193
178	0x3c244a7e	0.010027526
179	0x3c111a66	0.0088563915
180	0x3d0a48a7	0.033760693
181	0xbc1a7fd4	-0.009429891
182	0xbd945603	-0.07242968
183	0x3c940f01	0.01807356
184	0xbe1ea069	-0.15490879
185	0xbd1c6a9c	-0.038187608
186	0x3c6ac3e7	0.014328933
187	0x3e06fb51	0.13181807
188	0xbe4628e6	-0.19351539
189	0x3e0b7d8c	0.13622111
190	0xbc9f86a7	-0.019473387
191	0xbcc77444	-0.024347432
192	0x3e352d62	0.17693093
193	0x3d82bfe6	0.06384258
194	0xbd8927eb	-0.06697067
195	0x3d485f27	0.04891887
196	0x3d5a7106	0.053330444
197	0x3df344fd	0.11878393
198	0xbd3caf78	-0.046065778
199	0x3df4529a	0.119298175
200	0xbd09ea72	-0.03367085
201	0xbdc72231	-0.09723318
202	0xbd5e038e	-0.05420261
203	0x3d06ceb3	0.032911967
204	0xbd2cabfa	-0.042156197
205	0xbe221712	-0.15829113
206	0x3df8e8c7	0.12153774
207	0x3daf9816	0.0857393
208	0x3d18618e	0.03720241
209	0xbd2a739f	-0.04161417
210	0x3b9aa346	0.0047191707
211	0x3e2e1fa1	0.17004253
212	0x3da58103	0.08081248
213	0xbd37f08a	-0.04490713
214	0xbdd0bc17	-0.10192125
215	0x3c904cc1	0.017614724
216	0xbd8823e1	-0.06647468
217	0x3d27af2f	0.040938552
218	0xbdf9cac1	-0.12196875
219	0xbd2cb215	-0.04216202
220	0x3e33479f	0.1750779
221	0xbdee4749	-0.1163469
222	0x3e45ae30	0.19304729
223	0xbe5e9046	-0.21734723
224	0x3e10c87e	0.14138982
225	0xbd97d1e6	-0.07413082
226	0xbe30ef39	-0.17278756
227	0xbbabd645	-0.005244049
228	0x3d6892ec	0.05678074
229	0x3e1dca52	0.1540921
230	0xbc23d1fd	-0.009998796
231	0x3da83e03	0.08214953
232	0xbdfe2686	-0.124096915
233	0xbdab6646	-0.083691165
234	0xbc4ecc33	-0.012621927
235	0xbd90fde6	-0.07079677
236	0xbd8df6a7	-0.06931811
237	0x3ce874f0	0.028376073
238	0x3ccb07a1	0.024783911
239	0x3c9aef44	0.018912919
240	0xbe4fffa8	-0.20312369
241	0x3da42b1d	0.08016036
242	0xbd9bfd21	-0.0761664
243	0x3e1d2652	0.1534665
244	0xbe4c0fbb	-0.19927876
245	0xbe16e326	-0.14735088
246	0xbe144b4f	-0.14481853
247	0x3dce5a6e	0.10075842
248	0x3e5ef226	0.2177206
249	0x3c7fefb4	0.0156211145
250	0x3e16cdc4	0.14726931
251	0xbd9a4ac1	-0.075337894
252	0xbd6ee8fa	-0.058327653
253	0xbd65f706	-0.056143783
254	0xbc8f7068	-0.017509654
255	0x3d8e5f1a	0.06951733

l2.bias f4 [100]
0	0x3be18ba8	0.0068831034
1	0xbd7a0b96	-0.061046205
2	0xbe0883e3	-0.13331561
3	0xbe1b1640	-0.15145206
4	0x3d293d0b	0.04131798
5	0xbdf86582	-0.12128736
6	0x3e00f024	0.12591606
7	0x3e0a93f1	0.13532998
8	0x3cbdf1e1	0.023186626
9	0x3d9f985a	0.07792731
10	0xbe08327f	-0.13300513
11	0x3da78950	0.08180487
12	0xbe5f012e	-0.21777794
13	0xbba36944	-0.004986914
14	0xbe2bd20e	-0.16779348
15	0x3e3f6e86	0.18694505
16	0xbe1b843c	-0.15187162
17	0xbd004bd2	-0.031322308
18	0x3d2008be	0.039070837
19	0x3d4d18ec	0.050072595
20	0x3d826cf8	0.063684404
21	0x3dba6e49	0.091030665
22	0xbd3a26da	-0.045447208
23	0x3e6e9817	0.23300205
24	0x3c85c68e	0.01633003
25	0x3e06b928	0.13156569
26	0x3db262bf	0.087102406
27	0x3e11a315	0.14222367
28	0x3e07cf10	0.13262582
29	0x3e89005b	0.26758084
30	0xbc6ffa37	-0.014647058
31	0xbd3a9320	-0.045550466
32	0x3e23ff32	0.16015318
33	0xbdaf508e	-0.085602865
34	0x3e23714e	0.15961191
35	0xbcf2ef92	-0.029655252
36	0x3e3a8c6d	0.1821763
37	0xbd3df790	-0.046378672
38	0xbda748b3	-0.08168163
39	0x3d938bf0	0.07204425
40	0xbe6d247b	-0.23158447
41	0x3e088118	0.13330495
42	0x3cd0cb45	0.025487551
43	0xbd9e6eb8	-0.07735962
44	0x3e89a801	0.2688599
45	0xbd95d570	-0.073161006
46	0xbe5359ff	-0.206398
47	0xbdf2837d	-0.11841486
48	0xbca10f7c	-0.019660704
49	0x3bb3ed94	0.005490968
50	0x3e30e9b2	0.17276648
51	0xbd5786bb	-0.052618723
52	0xbdca7296	-0.09885137
53	0xbdfba253	-0.1228682
54	0xbe3643f4	-0.1779936
55	0x3d71c06e	0.059021406
56	0x3e1868a3	0.14883666
57	0xbcbab8aa	-0.022793133
58	0xbe2ccfa9	-0.16876091
59	0x3cca220b	0.024674436
60	0xbe406478	-0.18788326
61	0x3e63881c	0.2221989
62	0x3b877731	0.004134082
63	0x3d16f7bb	0.036857348
64	0xba352fa3	-0.00069117005
65	0x3c7c1782	0.015386464
66	0x3e3df7ae	0.18551514
67	0x3e38ffb3	0.18066292
68	0xbd93044b	-0.07178553
69	0xbe11a1bd	-0.14221855
70	0xbdd74e24	-0.10512951
71	0xbde6f92e	-0.11277996
72	0x3b5b4293	0.003345643
73	0x3e3ced67	0.18449937
74	0xbea3d154	-0.31995642
75	0x3db86ab5	0.09004728
76	0xbe5cd13f	-0.21564196
77	0xbcb77fa7	-0.022399737
78	0xbe15ba83	-0.1462193
79	0x3e119d36	0.14220127
80	0x3d87eb66	0.066366956
81	0x3c8d2cfe	0.017233368
82	0x3dc17ee1	0.09448028
83	0xbb9beaaf	-0.004758201
84	0x3e32a609	0.1744615
85	0xbdde9576	-0.10868351
86	0xbd8866b6	-0.066602156
87	0xbe051b3a	-0.12998667
88	0x3c40d3a9	0.011769214
89	0x3e0d3b44	0.1379214
90	0x3c857209	0.016289728
91	0xbe9684db	-0.29398236
92	0xbe243370	-0.16035247
93	0xbdcdaf26	-0.100431725
94	0x3d2541db	0.040346008
95	0xbc9efe56	-0.019408386
96	0x3db71164	0.08938864
97	0x3e1259b0	0.14292026
98	0xbde272b0	-0.11057031
99	0x3d4abd12	0.049496718

l3.weight f4 [18, 100]
0	0x3db57e59	0.088619895
1	0xbe595b11	-0.21226145
2	0x3e6966b0	0.22793078
3	0xbe2cf097	-0.16888653
4	0x3c68d852	0.014211731
5	0x3e34fba8	0.17674124
6	0x3d91aef2	0.07113446
7	0x3dbab3c2	0.09116317
8	0xbdce2328	-0.10065299
9	0xbcfa0b01	-0.030522825
10	0xbd899cd8	-0.06719369
11	0x3d88109c	0.06643793
12	0xbe27d492	-0.16389683
13	0xbdcfdfbe	-0.10150097
14	0xbdd3997f	-0.103320114
15	0xbbcc9b5f	-0.0062441076
16	0x3dd01c94	0.10161701
17	0xbd9ecb12	-0.07753576
18	0xbe161ab9	-0.14658631
19	0x3c1def2f	0.009639545
20	0xbe53042b	-0.20607059
21	0x3e41d7bb	0.18929951
22	0xbd8b70ed	-0.06808648
23	0x3e536967	0.20645677
24	0xbdbbb14c	-0.09164676
25	0xbcf5d769	-0.030009942
26	0xbe6da156	-0.23206076
27	0xbe34e1d3	-0.1766427
28	0xbde794a7	-0.1130765
29	0x3df8b062	0.12143017
30	0x3eaac8e5	0.33356395
31	0xbe358286	-0.17725572
32	0x3e01fa9b	0.12693255
33	0x3d952ac0	0.072835445
34	0xbccf34d7	-0.02529375
35	0xbd41a197	-0.047273245
36	0x3d59677f	0.053077217
37	0xbd6efad6	-0.058344685
38	0xbe3fbaf2	-0.18723658
39	0xbd12cf68	-0.03584233
40	0x3e04fd62	0.12987283
41	0x3e669a28	0.22519743
42	0x3e25c393	0.16187887
43	0x3d04092b	0.032235306
44	0x3d684b6f	0.056712564
45	0x3c817bd2	0.015806112
46	0xbe21cbdd	-0.15800424
47	0xbb6ef965	-0.0036464569
48	0xbe029c5d	-0.1275496
49	0xbe1431ae	-0.14472076
50	0xbe526157	-0.20544945
51	0x3e021522	0.12703374
52	0x3e190c99	0.14946212
53	0x3e2a60cf	0.16638492
54	0xbdd3ec0d	-0.103477575
55	0xbda0bda0	-0.07848668
56	0x3e4843ba	0.19557086
57	0xbe84dc42	-0.25949293
58	0x3db0a00e	0.08624278
59	0xbdeb87d8	-0.115005195
60	0x3e33c077	0.17553888
61	0x3dfec5f9	0.12440104
62	0xbe0131be	-0.12616631
63	0xbe40f695	-0.18844064
64	0xbe97b518	-0.2963035
65	0xbc03688e	-0.008020533
66	0x3e02f675	0.12789328
67	0x3e8cfbac	0.2753576
68	0xbcd87789	-0.026424186
69	0x3def0a10	0.11671841
70	0xbba7533f	-0.0051063593
71	0x3cb2191d	0.02174049
72	0xbe66a4f7	-0.22523867
73	0xbcbdd1be	-0.023171302
74	0xbdb826e3	-0.08991792
75	0xbe2fb0db	-0.17157309
76	0xbe50b5c7	-0.20381843
77	0x3dd11fec	0.10211167
78	0x3d22d80d	0.039756823
79	0x3dc4f8ac	0.09617743
80	0xbddb3b03	-0.10704615
81	0xbe2fdc7c	-0.17173952
82	0x3e2ab538	0.16670692
83	0x3e4c99ea	0.19980589
84	0x3c446059	0.011985862
85	0x3d116bcf	0.035503205
86	0x3d40f66e	0.047110014
87	0xbeb6e140	-0.35718727
88	0x3db27750	0.08714163
89	0xbca4ab9d	-0.020101363
90	0xbe23f134	-0.1600998
91	0xbd071d1a	-0.032986738
92	0xbd900799	-0.07032699
93	0xbe38f044	-0.18060404
94	0xbc9c9029	-0.01911171
95	0x3da659ac	0.08122572
96	0x3de95e8a	0.11394985
97	0xbe554642	-0.20827582
98	0xbacca0e8	-0.0015611919
99	0x3e114b2a	0.14188829
100	0x3dc87f60	0.0978992
101	0xbe73ac9f	-0.23796318
102	0xbd405c38	-0.046962947
103	0xbe010b63	-0.12602
104	0x3d62c8d3	0.055367302
105	0x3d70f86c	0.058830664
106	0xbcf90650	-0.030398518
107	0xbe021162	-0.12701944
108	0xbd3af072	-0.045639463
109	0x3d926d2b	0.071497284
110	0x3e7f4707	0.24929439
111	0x3c9b5b68	0.018964484
112	0xbda94a17	-0.08266085
113	0xbca2b8c2	-0.01986349
114	0x3c82797e	0.015927073
115	0xbdabc2f6	-0.08386795
116	0x3d959cf4	0.07305327
117	0x3d54530a	0.051837005
118	0xbda03bb7	-0.0782389
119	0x3d83273a	0.06403966
120	0x3d88b9e0	0.06676078
121	0x3ca67202	0.020318035
122	0xbb67fe84	-0.0035399506
123	0xbe3e521a	-0.18586007
124	0xbe01505a	-0.12628308
125	0x3dd64352	0.10462059
126	0xbe2edc9a	-0.1707634
127	0xbc737adb	-0.014860834
128	0x3e61cd90	0.22051072
129	0xbd961319	-0.07327861
130	0x3d3e5ef8	0.046477288
131	0x3d55b9a4	0.052178994
132	0x3d47308e	0.04863029
133	0xbe6d1177	-0.23151194
134	0xbcad3657	-0.021144075
135	0xbd8ba076	-0.06817715
136	0x3cb3c0ec	0.021942578
137	0x3c810e63	0.01575393
138	0x3d8ff92d	0.070299484
139	0xbeaf45cf	-0.34232947
140	0xbc5bd5db	-0.013417686
141	0xbd57f165	-0.052720446
142	0xbddd8c9d	-0.108178355
143	0xbdd52d99	-0.10409088
144	0xbe757999	-0.23972167
145	0x3e28ef75	0.16497596
146	0xbd292da0	-0.041303277
147	0x3dc6f51b	0.09714719
148	0xbd4a63dd	-0.049411643
149	0xbe6a91e6	-0.22907218
150	0x3e1d35b0	0.15352511
151	0x3dc3d32f	0.095617644
152	0x3da0e850	0.0785681
153	0xbd364a96	-0.044504724
154	0xbe10d438	-0.14143455
155	0x3db69b6a	0.08916362
156	0xbdc52c9f	-0.096276514
157	0x3e10dfca	0.14147869
158	0xbda7195f	-0.08159136
159	0xbd067f4a	-0.032836236
160	0xba788bfc	-0.00094813085
161	0xbd02130d	-0.03175645
162	0x3d64b741	0.055838827
163	0x3cf9aaf2	0.03047702
164	0x3e3afcf7	0.18260561
165	0xbdb2d2e4	-0.087316304
166	0x3e5aea6b	0.21378486
167	0xbca01fe9	-0.019546466
168	0x3e3457c1	0.176116
169	0xbe70ad19	-0.23503532
170	0xbd9f9157	-0.07791393
171	0xbeaaad4c	-0.3333534
172	0x3da42664	0.08015135
173	0xbdd6dd5e	-0.10491441
174	0xbd5845c9	-0.052800927
175	0xbc97df0b	-0.018538972
176	0xbe32f321	-0.17475559
177	0x3e52fc23	0.20603995
178	0xbe6eff9b	-0.23339693
179	0x3b856d18	0.004071843
180	0x3df4f376	0.11960499
181	0xbe429897	-0.19003521
182	0x3c1b7604	0.009488586
183	0xbd73a7cc	-0.059486195
184	0xbe430a46	-0.19046888
185	0xbd5b4829	-0.053535614
186	0x3dc99441	0.0984273
187	0x3d5b10f4	0.053482965
188	0xbe9afbba	-0.30270177
189	0x3c903afc	0.017606251
190	0xbdd20ae5	-0.10255984
191	0xbe2dddf2	-0.16979197
192	0xbe3ee659	-0.18642558
193	0xbcb9cc66	-0.022680473
194	0x3e0eaab0	0.139323
195	0x3d2eb905	0.042656917
196	0x3dad23d5	0.084541
197	0xbe764e9c	-0.24053425
198	0xbe274e89	-0.16338553
199	0x3e22dc8d	0.15904446
200	0xbdd4758a	-0.10373981
201	0x3d633eb5	0.055479724
202	0x3bc187ce	0.0059060818
203	0xbd4956ee	-0.04915517
204	0xbda1fd3f	-0.07909631
205	0x3e7a9c24	0.24473625
206	0xbdba7402	-0.09104158
207	0x3e44c9f1	0.1921766
208	0x3dda4fbb	0.10659739
209	0x3d838f40	0.06423807
210	0xbe8669ac	-0.26252496
211	0xbcc26ef2	-0.023734543
212	0x3cb9df4d	0.022689486
213	0xbce1424c	-0.027497433
214	0xbd86ba63	-0.06578519
215	0xbe0983fc	-0.13429254
216	0xbdb920ad	-0.090394355
217	0xbe87197f	-0.2638664
218	0x3e02da9a	0.12778702
219	0x3e011d06	0.12608728
220	0xbe138abe	-0.14408395
221	0x3cb44c02	0.0220089
222	0x3e87af85	0.26501098
223	0x3e1220a4	0.14270264
224	0xbd54d63a	-0.051962115
225	0xbdf9fc53	-0.1220633
226	0x3e0f0b36	0.1396912
227	0x3db937f4	0.09043875
228	0xbd4117ac	-0.047141716
229	0x3d92ce63	0.071682714
230	0xbd12b15d	-0.035813678
231	0xbc37ab70	-0.0112103075
232	0xbdedc608	-0.11610037
233	0x3df55e68	0.11980897
234	0x3bfcc728	0.007714171
235	0xbe0b90a2	-0.13629392
236	0x3e242c72	0.1603258
237	0x3d5e91a7	0.054338124
238	0x3e371921	0.1788068
239	0xbe0385ef	-0.1284406
240	0xbdc2bcfc	-0.09508702
241	0x3e2a346f	0.16621564
242	0xbe55008a	-0.20800987
243	0x3dd6652f	0.10468518
244	0x3d441ce3	0.04787911
245	0x3cd34d95	0.02579383
246	0x3d4a2293	0.04934938
247	0xbd7b6872	-0.061378904
248	0x3bb5617f	0.005535304
249	0xbe0c5acf	-0.13706516
250	0xbe76f9f4	-0.24118787
251	0xbd5fc210	-0.05462843
252	0x3df7adc7	0.12093692
253	0x3daf58cc	0.085618585
254	0x3d86860e	0.06568538
255	0xbe2d0179	-0.16895093

l3.bias f4 [18]
0	0x3d8aa43c	0.067696065
1	0x3f538001	0.82617193
2	0xbe31f6a9	-0.1737925
3	0x3edd92d5	0.43276086
4	0xbe9ee084	-0.31030667
5	0xbe596e2d	-0.21233435
6	0x3f78cf98	0.9719176
7	0xbd29278e	-0.041297488
8	0x3ccde469	0.025133329
9	0xbe3334c4	-0.17500597
10	0xbd7969b3	-0.06089182
11	0xbe17874b	-0.14797704
12	0xbe888285	-0.26662078
13	0xbe3ef9d4	-0.1864999
14	0xbf3062e7	-0.68900913
15	0x3e79b376	0.24384865
16	0xbe71ae9d	-0.23601766
17	0xbf513eee	-0.8173665
